results/VQCINet128/model.pt (torch, 888503 bytes, 155 tensors)

feature_encoder.feature_encoder1.conv3x3_bn.conv.weight f4 [2, 2, 3, 3]
0	0x3f93200e	1.1494157
1	0x3fce692b	1.6125845
2	0x3f408736	0.75206316
3	0x4007f408	2.1242695
4	0x4029b1b0	2.6514702
5	0x3e8446f7	0.25835392
6	0x3f50cdf5	0.81564265
7	0x3f53fb10	0.82804966
8	0xbe3ad103	-0.18243794
9	0x3f9ae0fb	1.2099909
10	0x401a12b6	2.407392
11	0xbe6c2e27	-0.2306448
12	0x3fa54172	1.2910597
13	0x3fefc6d8	1.8732557
14	0x3eb5a1db	0.35475048
15	0x3f2a9a16	0.66641366
16	0xbe159bb6	-0.1461018
17	0xbf207c6a	-0.6268984
18	0xbdbf7407	-0.09348302
19	0xbd34fc84	-0.04418613
20	0x3c95e80e	0.018299129
21	0x3f574482	0.8408891
22	0xbda6635a	-0.081244186
23	0xbd74e992	-0.059793063
24	0xbe5ca8bb	-0.2154874
25	0x3b8ff4ee	0.0043932116
26	0x3caadf0c	0.02085831
27	0xbed76c66	-0.4207489
28	0x3d719c06	0.058986686
29	0x3ad42424	0.0016185087
30	0xbe3e334b	-0.18574254
31	0x3d1a3802	0.03765107
32	0xbca8a5bf	-0.020586846
33	0x3d8371ec	0.06418213
34	0x3cfdfcd6	0.03100435
35	0x3d234904	0.039864555

feature_encoder.feature_encoder1.conv3x3_bn.bn.weight f4 [2]
0	0x3effae32	0.49937588
1	0x3f84bcc0	1.0370102

feature_encoder.feature_encoder1.conv3x3_bn.bn.bias f4 [2]
0	0x3f958a9d	1.1682926
1	0x3e396eba	0.18108645

feature_encoder.feature_encoder1.conv3x3_bn.bn.running_mean f4 [2]
0	0x00000000	0.0
1	0x00000000	0.0

feature_encoder.feature_encoder1.conv3x3_bn.bn.running_var f4 [2]
0	0x3f800000	1.0
1	0x3f800000	1.0

feature_encoder.feature_encoder1.conv1x9_bn.conv.weight f4 [2, 2, 1, 9]
0	0x3ed3fa12	0.41401726
1	0xbe754716	-0.23952898
2	0x3f0f28fe	0.55921924
3	0xbeac19fb	-0.33613572
4	0x3b373ac1	0.0027958604
5	0x3e5dc609	0.21657576
6	0xbe1b79fd	-0.15183254
7	0xbe59615e	-0.21228549
8	0x3d6ec500	0.058293343
9	0xbebca871	-0.3684726
10	0xbf232e36	-0.6374239
11	0xbefb7ba6	-0.49117774
12	0xbf03264c	-0.5123031
13	0xbec970b9	-0.39343813
14	0xbe5faefa	-0.21844092
15	0xbe58b05d	-0.21161027
16	0xbe1b3e8a	-0.15160576
17	0xbe02c0ae	-0.12768814
18	0xbce43d7b	-0.027861347
19	0xbe32eecb	-0.17473905
20	0xbe27b5a5	-0.16377886
21	0x3f1307b4	0.5743363
22	0x3d364373	0.04449792
23	0xbd180e88	-0.037123233
24	0xbc82db9b	-0.015973857
25	0xbc93a548	-0.018023148
26	0x3c4420d4	0.011970717
27	0xbfd15476	-1.63539
28	0x3c7f3f10	0.015579
29	0x3cb94772	0.022617076
30	0x3c6e0aa2	0.014528902
31	0x3bbc6c1b	0.005750192
32	0x3c393497	0.011304042
33	0x3bdd56d0	0.0067547336
34	0x3c1a5816	0.009420415
35	0x3b99b043	0.0046902015

feature_encoder.feature_encoder1.conv1x9_bn.bn.weight f4 [2]
0	0x3f82dbd4	1.0223336
1	0x3f3fef83	0.7497484

feature_encoder.feature_encoder1.conv1x9_bn.bn.bias f4 [2]
0	0xbf3e22bc	-0.7427175
1	0xbe2830d6	-0.1642488

feature_encoder.feature_encoder1.conv1x9_bn.bn.running_mean f4 [2]
0	0x00000000	0.0
1	0x00000000	0.0

feature_encoder.feature_encoder1.conv1x9_bn.bn.running_var f4 [2]
0	0x3f800000	1.0
1	0x3f800000	1.0

feature_encoder.feature_encoder1.conv9x1_bn.conv.weight f4 [2, 2, 9, 1]
0	0xbef44b8e	-0.47713894
1	0xbe9b2426	-0.30301017
2	0xbe3db8ba	-0.18527499
3	0xbea52539	-0.3225496
4	0xbe97ccf2	-0.29648548
5	0xbe6871b8	-0.2269963
6	0xbe78af47	-0.24285613
7	0xbe52ff8b	-0.20605294
8	0xbdca6f81	-0.09884549
9	0x3f184770	0.59484005
10	0x3e422ebc	0.1896314
11	0x3e867f1b	0.2626885
12	0x3dbfedb9	0.09371514
13	0xbd9638dc	-0.07335064
14	0x3e5b971b	0.21444361
15	0x3de0806c	0.109619945
16	0xbe8a358b	-0.26993975
17	0x3e5e0fd4	0.21685725
18	0x3e0aff76	0.13574013
19	0x3cc98e49	0.02460398
20	0xbbfc80ed	-0.007705799
21	0xbd8b9ae2	-0.06816651
22	0xbc93ba95	-0.018033305
23	0x3d36f111	0.044663493
24	0x3d7fac86	0.06242039
25	0xbceca244	-0.028885968
26	0x3d1b4eb9	0.037916873
27	0x3f772458	0.9653983
28	0xbc1c9adf	-0.0095584085
29	0x3e326810	0.17422509
30	0xbeec4787	-0.4614832
31	0x3d143a64	0.0361885
32	0x3e2c5d34	0.16832429
33	0x3e963f9c	0.29345405
34	0xbdb16a78	-0.086628854
35	0x3e9b15ff	0.3029022

feature_encoder.feature_encoder1.conv9x1_bn.bn.weight f4 [2]
0	0x3eb64280	0.3559761
1	0x3f3bca31	0.73355395

feature_encoder.feature_encoder1.conv9x1_bn.bn.bias f4 [2]
0	0x40697548	3.6477833
1	0x3e067bca	0.1313316

feature_encoder.feature_encoder1.conv9x1_bn.bn.running_mean f4 [2]
0	0x00000000	0.0
1	0x00000000	0.0

feature_encoder.feature_encoder1.conv9x1_bn.bn.running_var f4 [2]
0	0x3f800000	1.0
1	0x3f800000	1.0

feature_encoder.feature_encoder3.conv3x3_bn.conv.weight f4 [2, 2, 3, 3]
0	0xbf42d442	-0.7610513
1	0xbf47d9aa	-0.78066504
2	0xbe92da72	-0.28682286
3	0xbf84aff8	-1.0366201
4	0xbe7660d6	-0.24060377
5	0x3e99fa06	0.30073565
6	0xbf9e091f	-1.2346534
7	0x3e709d2d	0.23497458
8	0x3f159f5a	0.58446276
9	0xbf073e32	-0.5282928
10	0xbf7278f2	-0.947158
11	0xbf0b6af0	-0.5446005
12	0xbfbc8428	-1.4727831
13	0x3f865a0e	1.0496233
14	0x40133d5a	2.3006196
15	0xbed8e331	-0.42360833
16	0xbf15bf8a	-0.5849539
17	0xbe4fc6f1	-0.20290734
18	0x3dfc777a	0.12327476
19	0xbe1556c2	-0.14583877
20	0xbdc144c2	-0.09436943
21	0x3e856563	0.26053914
22	0xbe8d5d2c	-0.27610147
23	0xbedb6216	-0.4284827
24	0x3ea90158	0.33008838
25	0xbea5a0f3	-0.32349357
26	0xbe1e1c42	-0.15440467
27	0xbd83831b	-0.06421491
28	0xbe008b11	-0.1255305
29	0xbe63576f	-0.22201322
30	0x3f94f0ff	1.1636046
31	0xbe33b912	-0.17551067
32	0xbef98ebe	-0.48741716
33	0xbd4581d4	-0.048219517
34	0x3e63418f	0.22192977
35	0xbc08388a	-0.008314261

feature_encoder.feature_encoder3.conv3x3_bn.bn.weight f4 [2]
0	0x3fc2312f	1.517126
1	0x3f15d94e	0.58534706

feature_encoder.feature_encoder3.conv3x3_bn.bn.bias f4 [2]
0	0x3eba072a	0.3633359
1	0x3ad704ce	0.001640463

feature_encoder.feature_encoder3.conv3x3_bn.bn.running_mean f4 [2]
0	0x00000000	0.0
1	0x00000000	0.0

feature_encoder.feature_encoder3.conv3x3_bn.bn.running_var f4 [2]
0	0x3f800000	1.0
1	0x3f800000	1.0

feature_encoder.feature_encoder3.conv1x9_bn.conv.weight f4 [2, 2, 1, 3]
0	0xbf97dc9b	-1.1864198
1	0x3caffefe	0.021483894
2	0xbcfc9305	-0.030831823
3	0xbe44ccd2	-0.19218758
4	0xbee52b17	-0.44759437
5	0x3dfc5f26	0.123228356
6	0x3f67ef8c	0.90599895
7	0xbe3f4c8e	-0.18681547
8	0xbeb0508b	-0.3443645
9	0x3f96368b	1.1735395
10	0x3f140ca9	0.5783182
11	0x3f0cfa9f	0.5506992

feature_encoder.feature_encoder3.conv1x9_bn.bn.weight f4 [2]
0	0x3f4eb5f0	0.80746365
1	0x3efcfaf8	0.49410224

feature_encoder.feature_encoder3.conv1x9_bn.bn.bias f4 [2]
0	0xbe9ecf49	-0.3101752
1	0xbf1a10e1	-0.60182005

feature_encoder.feature_encoder3.conv1x9_bn.bn.running_mean f4 [2]
0	0x00000000	0.0
1	0x00000000	0.0

feature_encoder.feature_encoder3.conv1x9_bn.bn.running_var f4 [2]
0	0x3f800000	1.0
1	0x3f800000	1.0

feature_encoder.feature_encoder3.conv9x1_bn.conv.weight f4 [2, 2, 3, 1]
0	0xbe910ac8	-0.28328538
1	0xbf419154	-0.7561238
2	0xbf329a82	-0.6976701
3	0x3c9d033c	0.019166581
4	0xbddc4758	-0.10755795
5	0x3f0bfdd9	0.54684216
6	0x3f3511b8	0.7073016
7	0xbf4ec236	-0.8076509
8	0xbcefa6cc	-0.02925434
9	0xbec03b01	-0.37545016
10	0xbe8690a0	-0.26282215
11	0xbdb7c9ba	-0.08974023

feature_encoder.feature_encoder3.conv9x1_bn.bn.weight f4 [2]
0	0x3f55bf8b	0.83495396
1	0x3f150556	0.58211267

feature_encoder.feature_encoder3.conv9x1_bn.bn.bias f4 [2]
0	0x3e76d45f	0.2410445
1	0xbe97c5ae	-0.29643005

feature_encoder.feature_encoder3.conv9x1_bn.bn.running_mean f4 [2]
0	0x00000000	0.0
1	0x00000000	0.0

feature_encoder.feature_encoder3.conv9x1_bn.bn.running_var f4 [2]
0	0x3f800000	1.0
1	0x3f800000	1.0

feature_encoder.feature_encoder2.conv.weight f4 [2, 2, 3, 3]
0	0xbeb6d8c8	-0.35712266
1	0x3e647ca9	0.22313179
2	0xbe6eb7c4	-0.23312289
3	0xbe850db7	-0.25987026
4	0x3e318eca	0.17339626
5	0xbe373cc2	-0.17894271
6	0xbe904cc9	-0.28183582
7	0x3d66841c	0.056278333
8	0x3dc0c3b1	0.09412325
9	0xbec6c0dd	-0.38819018
10	0x3e213217	0.15741764
11	0xbf086669	-0.53281265
12	0xbe98ce6d	-0.2984499
13	0x3ea458bf	0.32098958
14	0x3de59573	0.11210146
15	0xbdb026e4	-0.08601168
16	0xbe1a53aa	-0.15070978
17	0x3cc7d0c5	0.024391541
18	0x3f1c77c1	0.6112023
19	0xbd8ac00c	-0.06774911
20	0x3c92ef9f	0.017936526
21	0x3f3089d8	0.6896033
22	0xbdbe21e0	-0.09283805
23	0x3d6c716f	0.057725366
24	0xbec2fcd1	-0.3808351
25	0x3c12a720	0.0089509785
26	0xbcdbb2ba	-0.026818622
27	0x400cbe07	2.1990983
28	0xbb674cfc	-0.003529369
29	0x3e0078b9	0.12546052
30	0xbfa5e78e	-1.296129
31	0x3d15d1cf	0.036577042
32	0xbd8ebba4	-0.06969383
33	0x3f0ad277	0.54227394
34	0x3e030c46	0.1279765
35	0x3ddb9e2e	0.1072353

feature_encoder.feature_encoder2.bn.weight f4 [2]
0	0x3f6e9849	0.9320112
1	0x3ece0f25	0.4024593

feature_encoder.feature_encoder2.bn.bias f4 [2]
0	0xbfde5fc9	-1.7372981
1	0x3fce4b6e	1.6116769

feature_encoder.feature_encoder2.bn.running_mean f4 [2]
0	0x00000000	0.0
1	0x00000000	0.0

feature_encoder.feature_encoder2.bn.running_var f4 [2]
0	0x3f800000	1.0
1	0x3f800000	1.0

feature_encoder.feature_encoder_conv.conv1.weight f4 [12, 6, 2, 2]
0	0x3ed7aa34	0.42122042
1	0xbf0cef45	-0.55052596
2	0x3f4665c5	0.7749904
3	0x3eaf090c	0.3418659
4	0x3d216915	0.039406855
5	0x3cc61a5d	0.024182493
6	0x3d0775d6	0.03307136
7	0xbcf197a6	-0.029491257
8	0x3dc1d23f	0.094639294
9	0x3de57ced	0.11205468
10	0xbdc625ea	-0.096752
11	0x3d97809e	0.07397579
12	0xbdc2e13a	-0.09515615
13	0xbda7c108	-0.08191115
14	0x3fb10fe0	1.383297
15	0x3e8a6b47	0.2703497
16	0x3e311c92	0.17296055
17	0x3e333cee	0.17503712
18	0x3e80e2ec	0.25173128
19	0xbdc7176a	-0.09721263
20	0xbc868f13	-0.016425645
21	0x3d9b3976	0.07579319
22	0x3ce7a931	0.028278919
23	0xbe2de0e8	-0.16980326
24	0xbe8a5119	-0.27014998
25	0xbe41d4c7	-0.18928824
26	0xbd31cf3e	-0.043410532
27	0xbdbde416	-0.092720196
28	0xbf3d909d	-0.7404879
29	0x3a049d7e	0.00050588686
30	0x3c8fcb36	0.017552953
31	0x3cafbb38	0.021451578
32	0x3e5f18d4	0.21786815
33	0xbdc7ca64	-0.097554
34	0x3e67dba2	0.22642377
35	0xbdba95fc	-0.091106385
36	0x3e82e0c5	0.2556211
37	0xbd63e7af	-0.055640873
38	0x3dec9c6a	0.11553271
39	0xbd870fcc	-0.0659481
40	0x3e05eba0	0.13078165
41	0xbe29e03a	-0.16589442
42	0x3e83341e	0.256257
43	0xbe24509a	-0.16046372
44	0xbe13a722	-0.14419225
45	0x3e2016ea	0.15633741
46	0xbddec2b5	-0.10876981
47	0x3dc79a6e	0.09746252
48	0x3e2e2ba0	0.17008829
49	0x3db32e9e	0.08749126
50	0x3ede09e6	0.43366927
51	0xbb90e62b	-0.0044219694
52	0xbbcf5ee1	-0.006328449
53	0x3dcd5d34	0.10027543
54	0xbdd32398	-0.10309523
55	0x3dc05e64	0.093930036
56	0x3ea0941c	0.31362998
57	0xbcacbfda	-0.021087576
58	0x3e39d39f	0.18147133
59	0x3d8156e6	0.06315403
60	0x3eb4f3f4	0.3534237
61	0x3dbd3a59	0.092396446
62	0xbd7a52d1	-0.061114136
63	0x3e8a13b1	0.26968148
64	0xbe471d62	-0.19444802
65	0x3d5b8ab3	0.05359907
66	0xbdc07c07	-0.09398656
67	0xbd8b30b4	-0.06796399
68	0xbefacbd5	-0.48983636
69	0x3d3df6b2	0.046377845
70	0x3ca059e6	0.019574117
71	0xbcea0cdb	-0.028570583
72	0x3f0beb1e	0.54655635
73	0xbe24fe8a	-0.16112724
74	0x3f1ec97a	0.6202618
75	0x3da0f496	0.07859151
76	0x3e93b52d	0.28849164
77	0xbc9a1cbe	-0.018812533
78	0x3da5233a	0.080633596
79	0xbd8a44d9	-0.06751413
80	0xbd05864c	-0.03259878
81	0xbe45722a	-0.19281831
82	0x3d5823ee	0.05276864
83	0x3d49b960	0.049249053
84	0x3e6cdea7	0.2313181
85	0xbeab4405	-0.33450332
86	0xbed1a266	-0.40944213
87	0xbeba0c8a	-0.36337692
88	0x3e215118	0.15753591
89	0xbe0f8a9e	-0.14017722
90	0x3e8ca271	0.27467683
91	0xbe2294ec	-0.15877122
92	0xbe33c856	-0.17556891
93	0xbd525ad0	-0.051356137
94	0x3eaf4c31	0.34237817
95	0xbe159b52	-0.14610031
96	0x3abbc060	0.00143243
97	0x3c853a6c	0.01626321
98	0x3d22413f	0.039613005
99	0xbd05b8c7	-0.03264692
100	0xbb2a0293	-0.0025941476
101	0xbcee8da3	-0.029120272
102	0xbcc697f3	-0.024242377
103	0xbfd6670e	-1.67502
104	0x3d6cbfc7	0.05780008
105	0xbd611a6b	-0.054956835
106	0x3deec682	0.11658956
107	0x3e8367f7	0.25665256
108	0x3de5d9f0	0.11223209
109	0xbb89d1ce	-0.004205919
110	0x3ae52ee8	0.0017485293
111	0xbcff0f16	-0.031135123
112	0xbd8419e9	-0.064502545
113	0x3cecbf21	0.028899731
114	0x3d84a76a	0.06477244
115	0xbe120e1e	-0.14263198
116	0xbd1df61c	-0.038564786
117	0x3ea76eb8	0.3270166
118	0xbe192131	-0.14954068
119	0x3de19118	0.110140026
120	0x3eec3e34	0.46141207
121	0x3e8cc264	0.27492058
122	0x3df4e8e4	0.11958483
123	0x3eac43fc	0.33645618
124	0xbe592825	-0.2120672
125	0xbbbeff5a	-0.00582878
126	0xbf09111c	-0.5354173
127	0xbdddeae9	-0.10835821
128	0x3ee97a91	0.45601323
129	0x3eba1f2d	0.3635191
130	0xbec9abde	-0.39388937
131	0x3d91c5ce	0.071178064
132	0x3eb1757f	0.34659955
133	0x3e984beb	0.2974542
134	0xbe6aa9ae	-0.2291629
135	0xbe9a1c5a	-0.30099756
136	0x3d8d52c4	0.06900552
137	0x3eb6fd7b	0.35740265
138	0x3e3e2849	0.18570055
139	0xbde38906	-0.111101195
140	0xbdde2157	-0.10846203
141	0x3e3c4581	0.18385889
142	0x3ddc351d	0.10752318
143	0xbe85ff45	-0.26171318
144	0x3e7309e1	0.23734237
145	0x3e83f551	0.257731
146	0xbe1103ac	-0.14161557
147	0x3cbb9d3f	0.02290213
148	0x3dcc45d6	0.09974258
149	0x3e3af448	0.18257248
150	0x3d4c2d60	0.04984796
151	0x3e570e53	0.21001558
152	0xbe500843	-0.20315652
153	0xbdbd3e83	-0.09240439
154	0xbd5c32da	-0.053759433
155	0x3c9bfcf7	0.019041521
156	0x3ec74ad5	0.3892428
157	0xbe4cc3d2	-0.19996575
158	0x3e9c175c	0.30486572
159	0x3f202f3a	0.6257206
160	0x3cda21ca	0.02662744
161	0x3e2196ae	0.15780136
162	0x3e4e6fae	0.2015979
163	0xbe27a700	-0.16372299
164	0xbe2d305e	-0.16912982
165	0x3e8c6488	0.2742045
166	0xbdffcef3	-0.12490644
167	0x3ccdf7fc	0.025142662
168	0xbee0de70	-0.43919706
169	0x3edee448	0.4353354
170	0x3f04b3cf	0.51836866
171	0x3daa7372	0.08322801
172	0x3daf0946	0.08546691
173	0x3d4bfdcc	0.049802586
174	0xbc4152cb	-0.011799525
175	0xbd0f9b3f	-0.035060164
176	0x3e531bea	0.20616117
177	0x3ecd1b69	0.40059975
178	0x3e3605db	0.17775671
179	0x3d1eea20	0.038797498
180	0x3d980a9c	0.074238986
181	0x3f1477ff	0.579956
182	0x3dfe7a3c	0.12425658
183	0x3f1ca517	0.6118941
184	0x3e137edd	0.14403863
185	0x3d0414ee	0.032246523
186	0x3e072c8f	0.13200592
187	0x3e9340af	0.28760287
188	0x3e6db772	0.2321451
189	0x3db98e87	0.09060388
190	0x3dce0705	0.100599326
191	0xbdd82da9	-0.10555584
192	0xbdacc2b6	-0.08435576
193	0xbd03f511	-0.032216135
194	0xbcae4b6b	-0.021276196
195	0xbd94bfe2	-0.07263161
196	0x3cac5091	0.02103451
197	0xbcf812fc	-0.03028249
198	0xbf7e7caf	-0.99409
199	0x3c976784	0.018481977
200	0x3eb63bd6	0.35592526
201	0xbdff5f2d	-0.12469325
202	0xbbab17c0	-0.005221337
203	0x3d42680f	0.04746252
204	0xbe2aad2f	-0.16667627
205	0xbca75e7d	-0.020430798
206	0xbe1cd4f6	-0.15315613
207	0xbddd9cca	-0.10820921
208	0xbc23e7ae	-0.010003967
209	0xbe85e5f2	-0.26151997
210	0xbc4fb720	-0.012677938
211	0x3e3f2734	0.18667299
212	0xbc7cb83f	-0.015424787
213	0xbe898ad2	-0.26863724
214	0x3d34d047	0.04414394
215	0x3d80a244	0.0628095
216	0x3ed881d4	0.4228655
217	0xbec327da	-0.38116342
218	0xbe4cc495	-0.19996865
219	0x3d8d3547	0.068949275
220	0xbd600696	-0.05469378
221	0xbd8876d5	-0.066632904
222	0xbd8c0e4b	-0.06838664
223	0xbc80a261	-0.015702428
224	0xbeaa57aa	-0.33270007
225	0x3e5c0af6	0.21488556
226	0x3e4ea06c	0.20178384
227	0xbd4dfc69	-0.050289545
228	0x3b55359a	0.003253317
229	0x3dd0e500	0.10199928
230	0xbe0c21aa	-0.13684717
231	0x3c8d4e53	0.017249262
232	0xbcc618c5	-0.024181733
233	0xbac67ea2	-0.0015143941
234	0x3d436c46	0.04771068
235	0x3e5eb249	0.21747698
236	0x3dccc13e	0.099977955
237	0x3e0c2f28	0.13689864
238	0xbd244e38	-0.040113658
239	0xbb850efb	-0.0040606237
240	0xbf11ce04	-0.5695498
241	0x3ded9872	0.11601342
242	0x3bfc2ca3	0.007695751
243	0xbd372f4f	-0.04472285
244	0xbe07703e	-0.13226411
245	0x3da22396	0.07916944
246	0xbe129196	-0.14313349
247	0xbd7a2257	-0.061067905
248	0x3d90d0d7	0.07071083
249	0xbe56f9bc	-0.20993704
250	0x3e47ea8a	0.19523063
251	0xbdc4cc91	-0.096093304
252	0xbdbea5a1	-0.09308935
253	0xbe0b18df	-0.13583706
254	0xbd51afa4	-0.051192895
255	0xbf2781d5	-0.6543248

feature_encoder.feature_encoder_conv.bn1.weight f4 [12]
0	0x3f60d18b	0.8781974
1	0x3f80801c	1.0039096
2	0x3f4f42d1	0.8096133
3	0x3f94a0bb	1.1611551
4	0x3efb2622	0.4905253
5	0x3f314a5f	0.69254106
6	0x3f712336	0.9419435
7	0x3f70a3ad	0.9399975
8	0x3fa52956	1.290324
9	0x3f0fc8d8	0.5616584
10	0x3f98a76f	1.1926097
11	0x3f6ddcc0	0.9291496

feature_encoder.feature_encoder_conv.bn1.bias f4 [12]
0	0x3f43fd83	0.76558703
1	0xbee26006	-0.44213885
2	0x3f8747cf	1.0568789
3	0x3d2dac1a	0.042400457
4	0xbe9b8f4c	-0.30382764
5	0x3da65e45	0.08123449
6	0x3f7f27bd	0.9967001
7	0xbe3f04f6	-0.18654236
8	0xbee44423	-0.44583234
9	0x3f5c7b0c	0.86125255
10	0xbfb8fa70	-1.4451427
11	0x3ea516db	0.32244

feature_encoder.feature_encoder_conv.bn1.running_mean f4 [12]
0	0x00000000	0.0
1	0x00000000	0.0
2	0x00000000	0.0
3	0x00000000	0.0
4	0x00000000	0.0
5	0x00000000	0.0
6	0x00000000	0.0
7	0x00000000	0.0
8	0x00000000	0.0
9	0x00000000	0.0
10	0x00000000	0.0
11	0x00000000	0.0

feature_encoder.feature_encoder_conv.bn1.running_var f4 [12]
0	0x3f800000	1.0
1	0x3f800000	1.0
2	0x3f800000	1.0
3	0x3f800000	1.0
4	0x3f800000	1.0
5	0x3f800000	1.0
6	0x3f800000	1.0
7	0x3f800000	1.0
8	0x3f800000	1.0
9	0x3f800000	1.0
10	0x3f800000	1.0
11	0x3f800000	1.0

feature_encoder.feature_encoder_conv.conv2.weight f4 [12, 12, 2, 2]
0	0xbdc66757	-0.09687679
1	0x3e53af29	0.20672287
2	0xbdcdc6ee	-0.100477085
3	0x3dba3b09	0.09093291
4	0xbe3c4b1f	-0.18388031
5	0x3cdc07cf	0.026859192
6	0xbe6ef09b	-0.23333971
7	0x3dbc4c83	0.09194281
8	0x3e876ead	0.26451626
9	0x3d6b2c84	0.0574155
10	0xbe8a33ae	-0.26992553
11	0xbd86670f	-0.065626256
12	0x3eac3a4c	0.33638227
13	0xbd4dc699	-0.050238226
14	0x3e12753e	0.14302537
15	0xbc95de97	-0.018294616
16	0x3db2e192	0.087344304
17	0xbeaf08bf	-0.3418636
18	0xbf58b9e5	-0.8465865
19	0x3f51b2d2	0.81913483
20	0x3e093a30	0.13401103
21	0x3e8765c3	0.26444826
22	0x3ef8adb6	0.4857003
23	0xbe11d47a	-0.1424121
24	0x3c4785b4	0.012177873
25	0xbec0b33b	-0.37636742
26	0x3f0e1b3d	0.5551031
27	0x3e21982b	0.15780704
28	0x3bff2459	0.0077863154
29	0xbcf0ad50	-0.029379517
30	0x3b877a8a	0.004134481
31	0x3ebe6508	0.37186456
32	0xbe19a841	-0.1500559
33	0x3efbc5de	0.49174398
34	0x3eb858cc	0.36005247
35	0xbeef1484	-0.4669534
36	0xbd405329	-0.046954308
37	0x3e210d85	0.15727814
38	0xbde32c9a	-0.110924914
39	0xbe43dc02	-0.19126895
40	0x3dda1813	0.10649123
41	0x3d2fe8e8	0.042946726
42	0xbee90d3e	-0.45517915
43	0x3e60fd65	0.21971662
44	0x3e01c1b7	0.12671553
45	0x3e352081	0.1768818
46	0x3dc4d19e	0.09610294
47	0x3a61d0c4	0.00086141773
48	0xbe2aa19d	-0.16663213
49	0xbe45def5	-0.19323333
50	0xbe935685	-0.28776947
51	0x3e75f809	0.24020399
52	0x3ee8c7c5	0.45464912
53	0xbef4835e	-0.47756475
54	0x3dacba17	0.08433931
55	0x3dac1a56	0.08403461
56	0xbe967da5	-0.29392734
57	0x3bc146aa	0.0058983164
58	0x3e96d487	0.2945902
59	0x3d55bfd8	0.05218491
60	0xbf0f498f	-0.55971617
61	0x3d56e168	0.052461058
62	0x3e8e5616	0.27800053
63	0xbda87ef7	-0.082273416
64	0xbf2d0586	-0.67586553
65	0xbea3c5ba	-0.3198679
66	0x3dd5b37a	0.10434623
67	0x3f772cb1	0.9655257
68	0x3e596f3a	0.21233836
69	0x3e1849a4	0.14871842
70	0x3da54c7d	0.080712296
71	0xbd07e32e	-0.03317564
72	0x3ba54afc	0.005044339
73	0xbe0a20af	-0.1348903
74	0x3d3202e0	0.043459773
75	0xbd692884	-0.056923404
76	0x3e7c7e99	0.24657668
77	0x3ec55c68	0.38547063
78	0xbe32de0d	-0.17467518
79	0x3e684332	0.22681883
80	0x3dfb574b	0.12272509
81	0x3d34e080	0.044159412
82	0xbe93611b	-0.28785023
83	0x3e37081a	0.17874184
84	0xbdbd9d30	-0.09258497
85	0xbebe53d5	-0.37173334
86	0x3e225c57	0.15855537
87	0xbdb5c12f	-0.088747375
88	0x3eb742a7	0.3579304
89	0x3d2d08bb	0.042244654
90	0xbeed0fe8	-0.46301198
91	0xbd4c63aa	-0.049899735
92	0xbe8b5e93	-0.27220592
93	0x3e2c0961	0.16800453
94	0x3e418d42	0.18901542
95	0xbda4e44e	-0.08051358
96	0x3cd29387	0.025705112
97	0xbc0535e6	-0.008130526
98	0x3f1f2235	0.6216157
99	0xbe32a30e	-0.17445013
100	0xbe8d714d	-0.27625504
101	0x3e7a0ead	0.24419661
102	0x3dcaa43f	0.09894609
103	0x3e5e940d	0.21736164
104	0x3f02ecba	0.51142466
105	0xbd0e23bf	-0.03470206
106	0x3d93c5cb	0.072154604
107	0xbe3117f4	-0.17294294
108	0x3ddbff58	0.10742062
109	0xbcc814dd	-0.02442401
110	0xbe241cf4	-0.1602667
111	0x3ded6d47	0.115931086
112	0x3ef55508	0.47916436
113	0xbe38f038	-0.18060386
114	0xbeb36732	-0.3503967
115	0x3e14a3b1	0.14515568
116	0x3e76d788	0.24105656
117	0x3e0650d4	0.13116771
118	0xbd79df75	-0.06100412
119	0x3e60045b	0.21876661
120	0xbc72dc23	-0.0148229925
121	0x3eadf328	0.33974576
122	0xbd1b7232	-0.037950702
123	0x3eca3550	0.394938
124	0xbbd2dbb1	-0.0064348807
125	0x3e8dea76	0.27717942
126	0x3da1db9f	0.079032175
127	0x3ea2d72b	0.31804785
128	0xbc80acb0	-0.015707344
129	0x3e8c0b69	0.27352455
130	0x3e27d4bf	0.1638975
131	0x3f3267ef	0.6968984
132	0xbda9e63f	-0.08295869
133	0x3d402c51	0.046917263
134	0x3d023a24	0.03179373
135	0xbe0344b0	-0.12819171
136	0x3d37a60a	0.04483608
137	0x3d2fe61b	0.042944055
138	0xbed5484c	-0.4165672
139	0x3f2f47bc	0.6846883
140	0x3dc1af86	0.094573066
141	0xbda22597	-0.07917326
142	0x3e148a2f	0.14505838
143	0xbe77c624	-0.24196678
144	0xbde7aa54	-0.113117844
145	0x3dabe902	0.08394052
146	0x3d12b18b	0.03581385
147	0x3d4878b6	0.048943244
148	0x3db06de6	0.086147115
149	0x3cc4a407	0.024003996
150	0x3eb3568c	0.35026968
151	0xbe0ba64c	-0.13637656
152	0x3ea04ff7	0.31311008
153	0x3cdc247a	0.026872862
154	0xbd8b090c	-0.06788835
155	0x3d026137	0.031830993
156	0x3e543d65	0.20726545
157	0xbd974d51	-0.07387794
158	0x3ddb85eb	0.10718902
159	0xbd04818b	-0.032350104
160	0x3f15d423	0.5852682
161	0x3e9c81a7	0.30567667
162	0x3faf45af	1.3693141
163	0x3f4f9b12	0.81095994
164	0x3db968eb	0.09053215
165	0x3c4de6fa	0.012567276
166	0x3d95a24c	0.07306346
167	0xbe1f6354	-0.15565234
168	0x3e1f1424	0.15535027
169	0x3e00f023	0.12591605
170	0x3ec340ed	0.38135472
171	0x3e13cc0f	0.14433311
172	0xbe56c370	-0.20972991
173	0x3f1daea5	0.6159461
174	0xbc8e6598	-0.017382428
175	0x3f1a2c7c	0.6022413
176	0xbddf5240	-0.1090436
177	0x3e457b67	0.19285356
178	0xbe8e4706	-0.27788562
179	0xbdf24d42	-0.11831142
180	0x3e8deb1a	0.2771843
181	0xbeb96c49	-0.36215428
182	0xbd8d0c8b	-0.06887158
183	0xbf148361	-0.5801297
184	0xbe5f0859	-0.21780528
185	0x3e5a3f87	0.21313296
186	0x3e11fe0c	0.14257067
187	0x3f17f99e	0.5936526
188	0x3da34d39	0.079737134
189	0x3e34fb7a	0.17674056
190	0x3f239b9f	0.63909334
191	0x3dde8556	0.108652756
192	0xbe0d179e	-0.1377854
193	0xbba06f33	-0.0048960685
194	0x3e0e3039	0.13885583
195	0xbdd67edf	-0.104734175
196	0xbdccf44c	-0.100075334
197	0xbe19c94a	-0.15018192
198	0x3ef6050c	0.48050725
199	0xbe3e7793	-0.18600301
200	0x3f1786ef	0.5919027
201	0xbd3bbb49	-0.045832906
202	0x3ec07a1f	0.3759317
203	0x3d999a7f	0.07500171
204	0x3e3892a8	0.18024695
205	0x3dfbc608	0.12293631
206	0x3e2d095a	0.16898099
207	0x3d1b522f	0.037920173
208	0xbf4267a8	-0.75939417
209	0x3e8159f3	0.25263938
210	0xbea1829f	-0.31544968
211	0xbf9fc2c8	-1.2481318
212	0x3e6ed469	0.23323216
213	0x3e816de9	0.25279167
214	0xbe87957c	-0.26481235
215	0xbe53e0e0	-0.20691252
216	0xbe1ad886	-0.1512166
217	0xbe33e6d1	-0.17568518
218	0x3dcc2a96	0.0996906
219	0x3e8bae88	0.27281594
220	0x3de06e3f	0.10958528
221	0xbe3114f3	-0.17293148
222	0xbd3c29c4	-0.04593827
223	0x3ef4b360	0.47793102
224	0xbe9a5def	-0.3014979
225	0x3dfcb0d7	0.12338417
226	0xbede0139	-0.43360308
227	0xbf01defd	-0.5073088
228	0x3d310c86	0.043224834
229	0x3e8234e7	0.25430986
230	0x3e954068	0.291507
231	0xbeb923a2	-0.36159998
232	0xbe5636d8	-0.20919359
233	0xbcb43675	-0.021998623
234	0xbe7b4194	-0.24536735
235	0x3e14dc4d	0.14537163
236	0xbe086bc1	-0.13322355
237	0x3e513925	0.20431955
238	0x3e3230ff	0.17401503
239	0x3d8e7ecf	0.069577806
240	0x3a85e8c8	0.0010216469
241	0x3d0d8170	0.03454727
242	0xbcccd28d	-0.025002742
243	0x3e4226b4	0.18960077
244	0xbe8e21fa	-0.27760297
245	0x3d81f1f6	0.063449785
246	0x3e4d7cf7	0.20067202
247	0x3e45582b	0.19271915
248	0x3eca661d	0.3953103
249	0xbd8b722f	-0.06808888
250	0x3e267852	0.16256836
251	0xbe031b69	-0.12803425
252	0x3e21232a	0.1573607
253	0x3dc09b9d	0.09404681
254	0xbdce7bdc	-0.10082218
255	0x3c9413c3	0.01807583

feature_encoder.feature_encoder_conv.bn2.weight f4 [12]
0	0x3ec45d68	0.38352513
1	0x3f1c7026	0.61108625
2	0x3eda174a	0.42595893
3	0x3ed127b4	0.40850604
4	0x3ec78322	0.38967234
5	0x3ed5d8ac	0.4176687
6	0x3f6d7df4	0.92770314
7	0x3ec44cc0	0.38339806
8	0x3f73c923	0.95228785
9	0x3eb57c93	0.35446605
10	0x3ecb600a	0.3972171
11	0x3ee8bbae	0.45455688

feature_encoder.feature_encoder_conv.bn2.bias f4 [12]
0	0x3e0e72e6	0.13911018
1	0xbc903095	-0.01760129
2	0x3e057a35	0.130349
3	0x3df70701	0.12061883
4	0x3df2aeab	0.118497215
5	0x3e023a23	0.1271749
6	0xbe759e11	-0.23986079
7	0x3df1a8e7	0.11799794
8	0xbe5c381e	-0.21505782
9	0x3e0e4a75	0.1389559
10	0x3de03ccc	0.10949096
11	0x3ddfc86d	0.109269

feature_encoder.feature_encoder_conv.bn2.running_mean f4 [12]
0	0x00000000	0.0
1	0x00000000	0.0
2	0x00000000	0.0
3	0x00000000	0.0
4	0x00000000	0.0
5	0x00000000	0.0
6	0x00000000	0.0
7	0x00000000	0.0
8	0x00000000	0.0
9	0x00000000	0.0
10	0x00000000	0.0
11	0x00000000	0.0

feature_encoder.feature_encoder_conv.bn2.running_var f4 [12]
0	0x3f800000	1.0
1	0x3f800000	1.0
2	0x3f800000	1.0
3	0x3f800000	1.0
4	0x3f800000	1.0
5	0x3f800000	1.0
6	0x3f800000	1.0
7	0x3f800000	1.0
8	0x3f800000	1.0
9	0x3f800000	1.0
10	0x3f800000	1.0
11	0x3f800000	1.0

local_encoder_fc.weight f4 [128, 768]
0	0x3d94c8e6	0.07264881
1	0xbd587926	-0.05284991
2	0x3d560c76	0.052257977
3	0x3bb16482	0.005413593
4	0x3d9b51ed	0.075839855
5	0x3cb5ba1e	0.022183474
6	0x3cb7f59e	0.022455987
7	0xbc16bf1a	-0.009200836
8	0xbe661b7a	-0.22471419
9	0xbc603e91	-0.013686792
10	0xbd14950a	-0.036274947
11	0x3dafefde	0.08590673
12	0xbca65b74	-0.02030728
13	0x3d496e8a	0.049177684
14	0xbe139ad0	-0.14414525
15	0xbdc139ce	-0.094348535
16	0xbaf02adc	-0.001832332
17	0x3e80b664	0.25139153
18	0x3df9cce2	0.121972814
19	0x3b3df00e	0.0028982195
20	0x3dc0744e	0.09397183
21	0xbcf4a8e7	-0.029865695
22	0xbd9ad03f	-0.07559251
23	0xbddbdeaf	-0.10735833
24	0xbe70eb72	-0.23527315
25	0x3d43d7f6	0.04781338
26	0x3dd81cfb	0.105524026
27	0xbe31b8fc	-0.17355722
28	0x3c3721ec	0.011177521
29	0xbcfbc5a9	-0.0307339
30	0xbd17616c	-0.036958143
31	0xbcd432a6	-0.025903057
32	0xbcf07d3f	-0.029356597
33	0x39ff35c3	0.00048677446
34	0xbc0dc187	-0.008652098
35	0x3cc4a745	0.024005542
36	0xbd403a98	-0.04693088
37	0x3c662ed9	0.014049255
38	0x3cfc16b0	0.030772537
39	0x3d68fe87	0.05688336
40	0x3d9ee2e1	0.077581175
41	0xbb7b1f8c	-0.0038318364
42	0xbd9111fb	-0.070835076
43	0x3db31fd3	0.08746304
44	0xbc77f126	-0.015133178
45	0x3d25e394	0.04050024
46	0x3c93ba34	0.018033125
47	0x3a49a66d	0.0007692341
48	0x3e13d65e	0.14437243
49	0xbd182073	-0.03714032
50	0x3ca1aaf2	0.019734833
51	0x3dd11391	0.1020881
52	0x3c44342a	0.0119753275
53	0x3d423bfc	0.047420487
54	0x3cae35a3	0.02126581
55	0xbd355533	-0.044270705
56	0x3e7cc250	0.246835
57	0x3dc2b5fe	0.095073685
58	0x3d85d515	0.06534783
59	0xbc34d92e	-0.011038108
60	0xbba026ef	-0.0048874537
61	0xbe1c55ff	-0.1526718
62	0xbdfeb145	-0.12436155
63	0x3cd6bb94	0.026212491
64	0xbdb54c55	-0.0885245
65	0xbdb616af	-0.08891045
66	0xbd4735b6	-0.048635207
67	0x3cffc2fb	0.031220904
68	0x3dd3c565	0.103403844
69	0xbac2945f	-0.0014845243
70	0x3c15499d	0.009111789
71	0xbd4bd976	-0.049767934
72	0x3e08a254	0.13343173
73	0xbd2f8974	-0.042855695
74	0x3bddca32	0.0067684883
75	0x3b77b1bd	0.003779515
76	0x3d5ba7f0	0.053626955
77	0x3d96033d	0.073248364
78	0x3dbc9a83	0.09209158
79	0x3dca8959	0.09889478
80	0xbe51c08a	-0.20483604
81	0xbd9e1fc1	-0.077209
82	0x3bac7ba4	0.0052637625
83	0xbc90accf	-0.017660527
84	0xbd8d9654	-0.069134384
85	0x3d4e1ffc	0.05032347
86	0xbd6ae210	-0.057344496
87	0xbdbaf6de	-0.091291174
88	0x3dd7f7b0	0.105452895
89	0xbe107a95	-0.14109261
90	0xbc8e3d36	-0.017363172
91	0xbd8cf28f	-0.06882202
92	0xbd84a94b	-0.064776026
93	0x3d7dfee5	0.062010664
94	0xbe051fa7	-0.13000356
95	0xbe40a982	-0.18814662
96	0x3bf4c050	0.0074692145
97	0xbe5eb8d7	-0.21750198
98	0xbd099dca	-0.033597745
99	0x3cc83f3c	0.024444215
100	0x3d5c530b	0.053790133
101	0x3c46513a	0.012104327
102	0xbdba8ae8	-0.091085255
103	0xbd96d84a	-0.073654726
104	0xbd04e1fc	-0.032442078
105	0x3d36fca7	0.04467454
106	0xbcf6162d	-0.030039871
107	0xbd34f0d8	-0.044175
108	0x3e181a13	0.14853697
109	0xbb6d9d50	-0.0036257096
110	0xbd3e0b44	-0.046397462
111	0xbd2c0ede	-0.042006366
112	0xbdf95a1e	-0.121753916
113	0x3d9e7358	0.07736844
114	0xbc306aa5	-0.010767614
115	0x3e1833c3	0.14863496
116	0xbdc3b720	-0.09556413
117	0xbd9ab2cf	-0.07553636
118	0xbdc5fad6	-0.09666984
119	0xbd4f4310	-0.050601065
120	0xbd8db52c	-0.069193214
121	0x3e95670e	0.29180187
122	0xbd9d9b97	-0.07695692
123	0xbbeaf271	-0.0071700145
124	0xbce9f05d	-0.028556997
125	0xbc5f7306	-0.013638264
126	0xbcfdc9ec	-0.030980073
127	0xbdc3ffb7	-0.09570258
128	0xbdc23392	-0.094824925
129	0x3d427b0e	0.047480635
130	0x3dc5d74d	0.09660206
131	0x3c08b5c9	0.008344122
132	0x3de195b1	0.110148795
133	0xbde37a02	-0.111072555
134	0xbca8364d	-0.020533705
135	0x3cbcb0db	0.02303355
136	0xbcd344c6	-0.02578963
137	0xbd395266	-0.045244597
138	0xbd97a975	-0.07405368
139	0xbcb6c5d1	-0.022311123
140	0xbdad733b	-0.08469244
141	0xbddfe01c	-0.10931417
142	0x3d0aa3ac	0.033847496
143	0x3ca3e16a	0.020004947
144	0xbe06c85d	-0.1316237
145	0x3e4352f3	0.19074611
146	0xbc8e56b2	-0.017375324
147	0xbdab8c4f	-0.08376371
148	0xbe03cd8a	-0.12871376
149	0xbdc7b138	-0.09750599
150	0x3db898ec	0.090135425
151	0x3cda6af1	0.026662322
152	0x3e641614	0.22274047
153	0xbdba40da	-0.09094401
154	0xbdada4e8	-0.08478719
155	0x3d88da8c	0.066823095
156	0x3e1b58b3	0.15170555
157	0x3e6d43fe	0.23170468
158	0x3daeb907	0.08531385
159	0x3ceffeca	0.029296298
160	0x3d4bb171	0.04972977
161	0x3d92053b	0.07129904
162	0xbcac7aa3	-0.021054571
163	0xbd896d00	-0.06710243
164	0xbcb66247	-0.02226366
165	0x3d95cabf	0.073140614
166	0x3ded1bab	0.11577543
167	0x3b604894	0.0034222947
168	0x3bb02116	0.005375038
169	0xbdccf8b1	-0.100083716
170	0xbdf8fb53	-0.12157311
171	0x3d11468e	0.035467677
172	0x3c1aa388	0.009438403
173	0x3d0641ee	0.03277772
174	0x3cf04d15	0.02933363
175	0x365c2300	3.2802927e-06
176	0x3deec029	0.116577454
177	0xbd84f5b5	-0.064921774
178	0x3d4a02dc	0.049319133
179	0xbdcc42b5	-0.09973661
180	0xbd10d836	-0.035362445
181	0x3bf1781b	0.007369054
182	0x3d879431	0.06620062
183	0xbd8276a4	-0.06370285
184	0xbe41b3b8	-0.18916214
185	0x3d329a7b	0.043604355
186	0xbb1ef35a	-0.0024253936
187	0xbd71a0f3	-0.058991384
188	0xbc247dc8	-0.010039754
189	0xbd3a1a67	-0.045435335
190	0x3d733b8f	0.05938297
191	0x3b8ea9a6	0.0043537198
192	0xbe347734	-0.17623597
193	0x3dc318c3	0.09526207
194	0x3d849000	0.06472778
195	0xbd7bccb4	-0.061474517
196	0xbe01fa8c	-0.12693232
197	0xbd900918	-0.070329845
198	0xbdd17ab8	-0.10228485
199	0x3d9549af	0.07289445
200	0x3de61553	0.11234536
201	0x3e096641	0.13417913
202	0x3e03c6e1	0.12868835
203	0xbc2b6422	-0.010460885
204	0xbda7cadf	-0.081929915
205	0xbd33d5d0	-0.04390508
206	0xbe01a6e7	-0.12661324
207	0x3d297e4d	0.041380215
208	0xbcf5a741	-0.02998698
209	0xbe6d1297	-0.23151623
210	0xbc8df1da	-0.017327238
211	0x3a4f8664	0.0007916449
212	0xbd075eab	-0.033049267
213	0xbd35b781	-0.044364456
214	0x3d1c46c6	0.038153432
215	0x3d3b7e48	0.045774728
216	0x3da93e6f	0.082638614
217	0xbdff882b	-0.12477144
218	0xbd30229f	-0.043001767
219	0x3d388a2e	0.045053653
220	0x3d11c76a	0.035590567
221	0xbd8c079d	-0.068373896
222	0x3c880b6b	0.016607007
223	0x3d5dce61	0.054151896
224	0x3e2662fc	0.16248697
225	0x3da726d0	0.081617
226	0xbd689f9b	-0.056792837
227	0x3d0145d9	0.031560753
228	0x3c523427	0.012829817
229	0x3cab3ea8	0.0209039
230	0x3d22c4bc	0.0397384
231	0x3dbf9471	0.09354485
232	0xbd707e76	-0.058714353
233	0xbdddb0aa	-0.108247116
234	0xbb57c29a	-0.0032922388
235	0x3d9cc6f0	0.07655132
236	0x3d8311a3	0.06399848
237	0x3ce975ab	0.028498491
238	0x3c72d279	0.014820688
239	0x3dac073e	0.08399819
240	0xbddcd486	-0.10782723
241	0xbe3aaa05	-0.1822892
242	0xbcc6f5c8	-0.02428712
243	0xbcc7db59	-0.024396585
244	0x3d97144b	0.073769175
245	0xbd2b12f1	-0.04176611
246	0x3c21cbae	0.009875221
247	0x3d937587	0.07200151
248	0xbe8b2b0a	-0.27181274
249	0x3ca6ffeb	0.020385703
250	0xbc8dd122	-0.017311636
251	0x3c6ec2c7	0.014572806
252	0x3ce662bd	0.028123254
253	0xbd0f8e29	-0.035047684
254	0xbd3367ff	-0.04380035
255	0x3b87f458	0.004149001

local_encoder_fc.bias f4 [128]
0	0xbd9751a0	-0.073886156
1	0xbd8402f4	-0.06445876
2	0xbdfddffb	-0.123962365
3	0xbd780e4e	-0.060560517
4	0xbde9f095	-0.114228405
5	0xbe0ecb3a	-0.13944712
6	0xbd8f5d64	-0.07000235
7	0xbde1f9d5	-0.1103398
8	0x3cf5955c	0.029978447
9	0xbd87dde5	-0.0663412
10	0xbdee79f6	-0.11644356
11	0xbdafe5e4	-0.0858877
12	0xbd43a0b5	-0.047760684
13	0xb95de19f	-0.00021160253
14	0xbdc31bdc	-0.09526798
15	0xbda33756	-0.07969539
16	0xbd4151c9	-0.047197137
17	0xbdad1c44	-0.08452657
18	0xbdd3d846	-0.10343985
19	0xbde37518	-0.11106318
20	0xbd78659c	-0.060643777
21	0xbda9be68	-0.0828827
22	0xbe0d2bd0	-0.13786244
23	0xbdb5df15	-0.0888044
24	0xbdbef82b	-0.09324678
25	0x3c67fc4d	0.014159274
26	0x3d376e4e	0.04478293
27	0xbd4179fb	-0.04723547
28	0xbd50dece	-0.050993733
29	0xbd9713da	-0.07376833
30	0xbda59d81	-0.08086682
31	0xbcdc4385	-0.026887665
32	0xbdb19d15	-0.08672539
33	0x3de63ae0	0.11241698
34	0x3d9661e8	0.07342893
35	0xbd8aa936	-0.06770556
36	0x3d862222	0.06549479
37	0x3e089000	0.13336182
38	0xbb7169db	-0.0036836776
39	0xbce889e0	-0.028386056
40	0x3d300aad	0.04297893
41	0xbac71822	-0.0015189687
42	0x3d00e0ee	0.03146451
43	0x3df8cf8a	0.1214896
44	0xbdaad925	-0.08342198
45	0xbc8bc135	-0.017059902
46	0xbaddcef4	-0.0016922639
47	0x3dbe1c3b	0.09282728
48	0x3e029e4c	0.12755698
49	0x3dfc4304	0.1231747
50	0xbdff8503	-0.12476542
51	0x3dba4a3e	0.09096192
52	0x3d4faa66	0.050699614
53	0x3e019ba0	0.12657022
54	0x3e0dde33	0.13854294
55	0xbc025f08	-0.0079572275
56	0x3dbcc66c	0.092175335
57	0xbdc28356	-0.094977066
58	0x3def6688	0.11689478
59	0x3dd81bb3	0.10552158
60	0xbd0cfc0d	-0.03442006
61	0x3d5e4199	0.054261778
62	0x3e8a0c6b	0.269626
63	0x3e312bea	0.17301908
64	0xbe0f273d	-0.13979812
65	0xbd8add74	-0.0678052
66	0xbdb116de	-0.0864694
67	0xbd4d92c0	-0.05018878
68	0xbe2897a3	-0.16464095
69	0x3b46c7d2	0.0030331505
70	0xbd79db7c	-0.061000332
71	0xbc014d68	-0.00789199
72	0xbe07976d	-0.13241358
73	0xbe4ea2ec	-0.20179337
74	0xbd96a2b4	-0.07355252
75	0xbd939181	-0.07205487
76	0xbda8078a	-0.08204563
77	0x3c7b8811	0.015352265
78	0xbdb39531	-0.087686904
79	0xbdc30181	-0.09521771
80	0xbda7cc80	-0.08193302
81	0xbe4ae964	-0.19815594
82	0x3de21998	0.11040038
83	0xbe0434bc	-0.12910742
84	0xbdac4e8b	-0.084134184
85	0x3c935ee8	0.01798959
86	0xbd2e7eca	-0.042601384
87	0xbdb2a393	-0.087226056
88	0x3d5393a2	0.051654465
89	0xbd6455f4	-0.055746034
90	0xbc622db4	-0.013804842
91	0x3d41e2ee	0.047335558
92	0xbd112bdf	-0.03544223
93	0xbd41f454	-0.04735215
94	0xbe4e602a	-0.20153871
95	0xbd09ab24	-0.033610478
96	0x3dc9d712	0.098554745
97	0x3d3d7adc	0.046259746
98	0x3d892c19	0.06697864
99	0x3dd551a8	0.10415965
100	0x3ddec380	0.108771324
101	0x3dcc3298	0.099705875
102	0x3d6779e2	0.05651272
103	0x3db2fc61	0.08739544
104	0x3df6b43a	0.12046094
105	0x3dcf5537	0.10123675
106	0x3d83eb0b	0.06441315
107	0x3e10ff65	0.14159925
108	0x3d2a8388	0.041629344
109	0x3d6cf2b4	0.057848647
110	0x3dc32e1d	0.0953028
111	0x3e145650	0.1448605
112	0x3e115ede	0.14196345
113	0x3cac9a12	0.02106956
114	0x3e263578	0.16231334
115	0x3d766d65	0.06016292
116	0x3dd7b162	0.1053188
117	0x3e17666a	0.14785162
118	0x3da6d741	0.08146525
119	0x3d411038	0.047134608
120	0x3e1ff695	0.15621407
121	0x3d31ceb2	0.04341001
122	0x3e1efb99	0.15525664
123	0x3e116904	0.14200217
124	0x3e3c145a	0.18367139
125	0x3c3f50c3	0.01167697
126	0x3dcc289b	0.099686824
127	0x3d1b78a0	0.037956834

encoder_vector_quantization.embedding.weight f4 [16, 4]
0	0xbf71662a	-0.94296515
1	0xbf19cb08	-0.60075426
2	0xbfa6cce9	-1.3031284
3	0xbed3f967	-0.41401216
4	0x3ecb3dd3	0.39695606
5	0xbf9e5c4f	-1.237192
6	0x3e4b9415	0.19880708
7	0x3f6646e8	0.89951944
8	0xbebe5c75	-0.37179914
9	0x3e8a182a	0.2697156
10	0xbe92fe2c	-0.28709543
11	0x3e78d946	0.24301633
12	0xbf0c9054	-0.5490773
13	0x3f99790d	1.1990067
14	0xbec5b40f	-0.38613936
15	0xbea2de40	-0.31810188
16	0xbef00fce	-0.46887058
17	0xbed1f819	-0.41009596
18	0xbeeed5ea	-0.46647578
19	0x3d8d9b00	0.069143295
20	0x3f46a46f	0.77594656
21	0xbe8d7e0a	-0.27635223
22	0x3f8ebd0c	1.1151443
23	0x3fb39ce7	1.4032258
24	0xbf3878cf	-0.7205934
25	0x3df8d085	0.12149147
26	0xbf5c9720	-0.861681
27	0xbe20c136	-0.15698704
28	0x3f05c63d	0.5225561
29	0x3f22616f	0.6342992
30	0x3f85f96c	1.0466743
31	0x3f8e5fef	1.1123027
32	0xbe70e4b3	-0.23524742
33	0xbf8f5712	-1.1198447
34	0xbf79a13e	-0.9751166
35	0x3ef0fc60	0.47067547
36	0xbd847755	-0.06468073
37	0xbe90c161	-0.28272536
38	0x3bdba78a	0.006703322
39	0x3f107663	0.56430644
40	0xbf914964	-1.1350522
41	0x3e9463f0	0.28982496
42	0xbfae41b5	-1.3613802
43	0xbf3c5f00	-0.7358246
44	0xbea1985f	-0.31561562
45	0x3f6b9084	0.9201739
46	0x3f543f79	0.8290935
47	0x3d6928b0	0.05692357
48	0x3e9191b9	0.2843149
49	0xbdcef1d3	-0.10104718
50	0x3f1b5282	0.6067277
51	0x3f6b9906	0.9203037
52	0xbfc2ed9e	-1.5228765
53	0xbe916b7e	-0.28402323
54	0xc0082dc4	-2.1277933
55	0xbf8eb9bb	-1.115043
56	0x3d59a85e	0.053139083
57	0x3ee70d9b	0.45127568
58	0x3e5c10f9	0.2149085
59	0x3f2ac0ce	0.66700447
60	0x3f963513	1.1734947
61	0x3e85194c	0.25995862
62	0x3fef91f4	1.8716416
63	0x3fe77b60	1.8084526

local_decoder_fc.weight f4 [768, 128]
0	0xbe01eeda	-0.12688771
1	0xbe12333d	-0.14277358
2	0xbc8b10c4	-0.016975768
3	0xbbb0dbd2	-0.0053972984
4	0xbd8a525f	-0.06753992
5	0x3e1f0631	0.15529706
6	0x3e094a13	0.13407163
7	0xbdcb9070	-0.09939659
8	0xbe84a7f4	-0.25909388
9	0xbd2a01e4	-0.04150571
10	0x3e3069c4	0.17227846
11	0xbde3133b	-0.11087652
12	0xbe0b393d	-0.13596053
13	0x3ea2e994	0.3181883
14	0xbd017f9b	-0.031615835
15	0xbd654fb5	-0.055984218
16	0xbe08e766	-0.13369521
17	0x3ddd573b	0.108076535
18	0xbde7d5c3	-0.11320069
19	0x3df39b42	0.118948475
20	0x3d9f5288	0.077794135
21	0xbe119c64	-0.14219815
22	0xbd591b54	-0.053004578
23	0xbaf0bebc	-0.001836739
24	0x3d4edfe9	0.050506506
25	0x3e67c21f	0.22632645
26	0xbe04fb1a	-0.12986413
27	0x3d1bfd97	0.03808364
28	0x3e04fcea	0.12987104
29	0x3e148b25	0.14506204
30	0x3d849676	0.06474011
31	0xbe8d02f5	-0.2754132
32	0xbbf3e327	-0.00744285
33	0x3a0a427c	0.0005274189
34	0xbdeb38ea	-0.11485465
35	0x3ca414c2	0.02002943
36	0xbc58a741	-0.01322347
37	0xbdbada4a	-0.091236666
38	0x3e14e0f4	0.14538938
39	0xbd0e7950	-0.03478366
40	0x3b2c8acd	0.002632785
41	0x3d34a9dc	0.044107303
42	0x3de1aa64	0.110188276
43	0xbe2525dc	-0.16127723
44	0x3e162074	0.14660817
45	0xbd4853b5	-0.048907954
46	0xbd3100f9	-0.04321382
47	0x3d548bef	0.051891264
48	0xbd3b11fb	-0.045671444
49	0x3d957496	0.07297628
50	0x3e5ddcf4	0.21666318
51	0xbd5f8070	-0.054565847
52	0x3c8abe04	0.01693631
53	0xbd1ad423	-0.037799966
54	0x3dd8af38	0.10580295
55	0xbd76dd5e	-0.060269706
56	0x3d5fd209	0.054643665
57	0xbddbd2ee	-0.10733591
58	0x3d9fa32e	0.07794796
59	0xbe3fd658	-0.1873411
60	0xbd71688a	-0.058937587
61	0xbd9123c2	-0.070868984
62	0x3d145d8e	0.036222033
63	0x3d5a0a84	0.053232685
64	0x3d697f52	0.057006188
65	0xbe07f395	-0.13276513
66	0x3d66e032	0.056366153
67	0xbd5cc5a4	-0.053899422
68	0xbd47b9f4	-0.048761323
69	0x3d230fb5	0.0398099
70	0x3d21ae68	0.039472967
71	0xbc01f02f	-0.007930799
72	0x3db9ddcf	0.0907551
73	0x3c42200c	0.011848461
74	0x3d27fe8f	0.04101425
75	0xbca69dff	-0.02033901
76	0xbc2a0b2a	-0.010378638
77	0x3e161518	0.14656484
78	0x3d2bd06f	0.041946825
79	0x3d6d0d59	0.057874057
80	0xbc883e52	-0.01663128
81	0xbd554928	-0.05207172
82	0xbd8ddfc4	-0.069274455
83	0xbdbc857b	-0.09205147
84	0x3c8bdb83	0.017072445
85	0x3e3c840d	0.18409748
86	0x3d04ccb4	0.032421783
87	0xbcc3eb34	-0.023915865
88	0x3d593542	0.053029306
89	0x3e690d98	0.22759092
90	0xbd38ef3b	-0.045150023
91	0x3d23ba4f	0.0399726
92	0x3da1ea32	0.07905997
93	0x3d9153ab	0.070960365
94	0x3e39ef14	0.18157607
95	0xbe2d5646	-0.16927442
96	0x3d1c50ae	0.03816288
97	0x3ce80fce	0.028327849
98	0x3d9e778e	0.07737647
99	0x3d987549	0.07444245
100	0x3e085b7e	0.13316151
101	0xbe86a8ca	-0.2630065
102	0x3dec6bd6	0.115440056
103	0xbd617d95	-0.055051405
104	0x3db90ecc	0.090360254
105	0x3e44953d	0.19197555
106	0x3dd56bde	0.10420965
107	0xbd0f2711	-0.034949366
108	0x3d064eb2	0.032789893
109	0x3d9cb6ea	0.076520756
110	0x3dd75476	0.105141565
111	0x3df6ab77	0.12044423
112	0x3e095d86	0.13414583
113	0x3cd78220	0.026307166
114	0xbdb96731	-0.09052885
115	0x3d7a7a56	0.061151825
116	0x3e4094b5	0.18806727
117	0x3db709af	0.08937394
118	0xbd5fe28e	-0.05465942
119	0x3e05ba29	0.13059296
120	0x3e06f115	0.13177903
121	0x3dc25e1e	0.09490608
122	0x3d39867d	0.045294274
123	0xbe22696a	-0.15860525
124	0x3d27df0e	0.040984206
125	0x3e2bbbcb	0.16770856
126	0x3e111c46	0.14170942
127	0xbd3c7cb7	-0.046017375
128	0xbe06cd8c	-0.13164347
129	0xbe3eaec9	-0.18621363
130	0xbeb345d2	-0.35014206
131	0x3dc0d6df	0.094159834
132	0xbe03d18e	-0.12872908
133	0xbd747e8f	-0.05969101
134	0xbd5908cc	-0.052986905
135	0xbd67d663	-0.05660094
136	0xbbb057e8	-0.005381573
137	0xbe02f44f	-0.12788509
138	0xbd4a73f3	-0.049426984
139	0xbd456922	-0.048195966
140	0xbb13bc48	-0.0022542644
141	0xbe002ec5	-0.12517841
142	0x3e002e31	0.1251762
143	0xbc3b58e2	-0.0114347655
144	0xbdd79910	-0.10527241
145	0x3dbbdc66	0.09172897
146	0xbe02d852	-0.12777832
147	0xbe61eb80	-0.22062492
148	0xbde5a203	-0.11212542
149	0xbe026c41	-0.12736608
150	0xbce70b8a	-0.028203744
151	0x3e02bfb0	0.12768435
152	0xbbea0335	-0.0071414956
153	0xbe4da528	-0.20082533
154	0x3a174376	0.00057702453
155	0x3ced5411	0.02897075
156	0xbdb95dde	-0.09051107
157	0xbd861bf6	-0.06548302
158	0xbdabf9fb	-0.08397289
159	0xbd0e79ae	-0.03478401
160	0xbe1e35e1	-0.1545024
161	0xbe89554d	-0.26822892
162	0x3dbfa3bc	0.09357402
163	0xbc5678fd	-0.013090369
164	0xbd928589	-0.07154376
165	0x3dd913cc	0.10599479
166	0xbceac546	-0.02865852
167	0xbd8ce636	-0.06879847
168	0xbcf37ead	-0.02972349
169	0xbdc9c804	-0.09852603
170	0x3d1cfd4c	0.0383275
171	0x3e2762ed	0.16346331
172	0xbe0018c5	-0.12509449
173	0x3d2aea7a	0.04172752
174	0xbdb1cb5e	-0.08681367
175	0x3e96b84b	0.2943748
176	0x3d47c093	0.048767637
177	0x3d74b4c1	0.059742693
178	0x3dc6b166	0.09701805
179	0x3dadb8e8	0.08482534
180	0xbbc4b98c	-0.006003564
181	0x3c08132e	0.008305354
182	0x3d03ee7a	0.03220985
183	0xbd4e7cca	-0.050411977
184	0x3d57a6ed	0.052649427
185	0x3e5f204f	0.21789669
186	0x3db904ec	0.09034142
187	0xbdfde0d1	-0.12396396
188	0x3e2d370b	0.16915528
189	0xbdceae4e	-0.1009184
190	0x3d23f882	0.040031917
191	0x3e208f35	0.15679629
192	0xbd043515	-0.032277185
193	0xbd4b6719	-0.04965887
194	0xbd923e9f	-0.0714085
195	0xbbf2f879	-0.007414874
196	0xbd02768c	-0.031851336
197	0xbd77416c	-0.060365126
198	0xbc9a42cd	-0.018830681
199	0x3ca8968b	0.020579597
200	0xbdd8a634	-0.10578576
201	0x3d4f90f9	0.050675366
202	0xbd039839	-0.032127593
203	0x3cbf3d9b	0.023344805
204	0xbcad2c2d	-0.021139229
205	0x3d3a356d	0.045461107
206	0x3e5964e4	0.21229893
207	0x3c8dde22	0.017317835
208	0xbd1b3a91	-0.03789765
209	0x3d06bcfa	0.032895066
210	0xbddd85ad	-0.10816512
211	0x3b63c216	0.0034753135
212	0xbc4ecc67	-0.0126219755
213	0x3da64ded	0.08120332
214	0xbdb3f082	-0.087861076
215	0xbccab5e3	-0.024744933
216	0x3dade232	0.08490409
217	0xbd51ae48	-0.0511916
218	0x3c019bf7	0.00791072
219	0x3d2c4690	0.04205948
220	0x3d399745	0.045310277
221	0xbd86bf09	-0.06579406
222	0xbe148764	-0.14504772
223	0xbde2ab2a	-0.11067803
224	0x3e13eb6d	0.14445277
225	0x3dada138	0.08478016
226	0x3df512f5	0.119665064
227	0x3dabdef8	0.08392137
228	0x3dd33e6d	0.10314641
229	0x3e21f6fd	0.15816875
230	0x3dd098db	0.10185405
231	0xbb103c82	-0.0022008722
232	0x3e00b586	0.12569246
233	0x3e6b721a	0.22992745
234	0xbd2b91b6	-0.041887008
235	0x3e12034e	0.14259073
236	0x3dcc9aa2	0.09990431
237	0x3e08dba9	0.13365044
238	0x3e3c3da9	0.18382896
239	0x3b028ff9	0.001992224
240	0x3e9ca5d8	0.3059528
241	0x3e1d14c9	0.1533996
242	0x3e27e23e	0.16394898
243	0x3d12eed7	0.035872307
244	0x3dd48080	0.10376072
245	0x3d8eeb5f	0.06978487
246	0x3c6a239a	0.014290715
247	0x3d9ba8f1	0.076005824
248	0x3dac56d3	0.08414998
249	0x3dfb2dba	0.12264581
250	0x3e03f80a	0.12887588
251	0x3e120087	0.14258014
252	0x3e534120	0.20630312
253	0x3cea76ed	0.028621161
254	0x3d9bbee4	0.07604769
255	0x3dfe2846	0.12410025

local_decoder_fc.bias f4 [768]
0	0x3e3c61de	0.18396708
1	0x3e509678	0.203699
2	0xbd4a0108	-0.04931739
3	0xbd3b3b39	-0.045710776
4	0x3dac4ae3	0.08412721
5	0x3e16d4fa	0.14729682
6	0xbc867a00	-0.016415596
7	0xbe01e3cf	-0.12684558
8	0x3de16c8b	0.11007031
9	0xbc83ea10	-0.01610282
10	0x3e592dd5	0.2120889
11	0xbd26dd5f	-0.04073846
12	0xbd431cad	-0.04763477
13	0x3c833cb0	0.016020149
14	0xbd66eb7c	-0.05637692
15	0xbceeb105	-0.029137144
16	0x3dd60418	0.104499996
17	0xbd991905	-0.07475475
18	0xbdda5d12	-0.10662283
19	0x3d8ed33a	0.06973882
20	0xbd928c67	-0.07155686
21	0xbcaa4c65	-0.02078838
22	0xbd13d98f	-0.036096152
23	0xbdb9fea4	-0.09081772
24	0x3e347380	0.17622185
25	0xbd052f67	-0.03251591
26	0x3d2dc749	0.04242638
27	0xbe069481	-0.13142587
28	0x3d9be7d4	0.07612577
29	0x3e080f3f	0.13287066
30	0x3d1e4bc2	0.038646467
31	0xbe58015b	-0.21094267
32	0x3e7456d1	0.23861243
33	0x3cd95acd	0.026532555
34	0xbd175754	-0.036948517
35	0xbd94c89a	-0.07264824
36	0x3df81f4b	0.12115344
37	0x3df62b94	0.120200306
38	0x3d167b4a	0.03673867
39	0xbe35cc13	-0.1775363
40	0x3e1ef0e2	0.15521577
41	0xbd4efe6b	-0.0505356
42	0xbcb3c67c	-0.02194523
43	0x3d187a9a	0.037226297
44	0x3d845aae	0.06462608
45	0x3da709e1	0.08156181
46	0x3ca07641	0.019587638
47	0xbdd8a14c	-0.1057764
48	0xbebc9b95	-0.3683745
49	0xbeaaa816	-0.33331364
50	0xbe41889d	-0.1889977
51	0x3e11b6eb	0.14229934
52	0x3cc4d331	0.024026485
53	0xbda8b8d8	-0.08238381
54	0x3d166c58	0.03672442
55	0x3be5875b	0.007004661
56	0xbe9bca1b	-0.30427632
57	0xbe3a864a	-0.1821529
58	0x3e3f4b5f	0.18681096
59	0xbd4db787	-0.050223853
60	0x3e41e812	0.18936184
61	0xbca680de	-0.02032512
62	0x3da94c34	0.08266488
63	0x3dd5e6e1	0.10444427
64	0xbe754a90	-0.23954225
65	0x3e78e4da	0.2430605
66	0x3e802eba	0.2503565
67	0x3e82fdf9	0.2558439
68	0x3eb4aad7	0.3528659
69	0x3eb902f2	0.3613506
70	0x3ecef936	0.40424508
71	0x3eb67e19	0.3564308
72	0x3b394b7d	0.0028273754
73	0xbd1de39f	-0.038547155
74	0x3e018b4e	0.12650797
75	0x3e5163a6	0.20448169
76	0x3e9f8486	0.31155795
77	0x3e665ea9	0.22497047
78	0x3e55d4c1	0.2088194
79	0x3e9155a4	0.2838565
80	0x3d19a730	0.037512958
81	0x3e4ae142	0.19812492
82	0x3e4a1737	0.19735418
83	0x3e73d4fb	0.23811714
84	0x3e4da75b	0.20083372
85	0x3e8c96e7	0.2745888
86	0x3e930c08	0.28720117
87	0x3e6c813b	0.23096173
88	0x3e9cb1f2	0.30604511
89	0x3e86e554	0.26346838
90	0x3ec7ccee	0.39023536
91	0x3ebb8ac6	0.36629313
92	0x3e8ecdae	0.27891296
93	0x3e8372e5	0.25673595
94	0x3eb0b727	0.34514734
95	0x3ea827ae	0.32842773
96	0x3ef603d3	0.48049793
97	0x3e59d96f	0.2127435
98	0x3ed3db01	0.41378024
99	0x3ea5f54c	0.3241371
100	0x3e1a609e	0.15075919
101	0x3e8f8fdf	0.28039452
102	0x3ec2df84	0.38061154
103	0x3e910f65	0.28332058
104	0x3f0e30df	0.5554332
105	0x3e7ae601	0.24501802
106	0x3d968ebe	0.07351445
107	0x3e771e87	0.24132739
108	0x3e807293	0.25087413
109	0x3e55b38a	0.2086927
110	0x3e8cdeec	0.27513826
111	0x3ea7304b	0.32654032
112	0x3d922972	0.07136811
113	0xbdf85e71	-0.12127388
114	0x3c9dad16	0.019247573
115	0x3ed96ef3	0.4246746
116	0x3dc775c1	0.09739257
117	0x3e59d6ad	0.21273299
118	0x3e8e9830	0.27850485
119	0x3ea88fbe	0.32922167
120	0x3e31d013	0.1736453
121	0x3ec4cf5f	0.38439462
122	0x3f09bbf1	0.538024
123	0x3ea7ba4f	0.3275933
124	0x3ea90205	0.33009353
125	0x3e985568	0.2975266
126	0x3e766e90	0.24065614
127	0x3e835d20	0.25656986
128	0x3ec83c4d	0.39108506
129	0xbde15b31	-0.110037215
130	0x3d966b07	0.073446326
131	0xbecf4e0f	-0.4048924
132	0xbebed638	-0.3727281
133	0xbee78053	-0.4521509
134	0xbeb02cf2	-0.3440929
135	0xbf160563	-0.5860197
136	0x3e8b844e	0.27249378
137	0x3c9885c2	0.018618468
138	0xbc71802c	-0.014740031
139	0xbe0d8bf9	-0.13822927
140	0xbeb8cb48	-0.3609259
141	0xbf153a13	-0.5829174
142	0xbe9c2838	-0.30499434
143	0xbf20d113	-0.6281902
144	0x3e13d313	0.14435987
145	0xbd94031d	-0.07227156
146	0xbd136a4c	-0.035990044
147	0xbe3728d4	-0.17886668
148	0xbeeb05ba	-0.45902807
149	0xbef540d4	-0.47901022
150	0xbeda949c	-0.42691505
151	0xbee74149	-0.45166996
152	0xbe4933a6	-0.19648609
153	0xbef66940	-0.48127174
154	0xbe9cd7da	-0.30633432
155	0xbecb7e2d	-0.39744702
156	0xbeb95f81	-0.36205676
157	0xbed54a12	-0.41658074
158	0xbee1027a	-0.43947202
159	0xbf07455d	-0.52840215
160	0xbdbe7d9b	-0.09301301
161	0xbeb7d750	-0.35906458
162	0xbeeb02c4	-0.45900548
163	0xbe96a673	-0.29423866
164	0xbf04b8b4	-0.51844335
165	0xbf0b9326	-0.54521406
166	0xbeaeeba4	-0.34164155
167	0xbef2787a	-0.4735754
168	0xbedb4df0	-0.428329
169	0xbd36c4e1	-0.044621352
170	0xbee9be1c	-0.45652854
171	0xbeca62c1	-0.39528468
172	0xbebf4f02	-0.37364966
173	0xbee4b716	-0.44670933
174	0xbeaf291a	-0.34211046
175	0xbedc673b	-0.4304751
176	0xbe984696	-0.29741353
177	0x3e76e4a5	0.24110658
178	0xbea6309d	-0.32458964
179	0xbf0d0eb8	-0.55100584
180	0xbeaba0f0	-0.33521223
181	0xbeb0c7a8	-0.34527326
182	0xbedc94de	-0.43082327
183	0xbf016962	-0.50551426
184	0xbc12e196	-0.008964917
185	0xbe852a93	-0.26009044
186	0xbedd953f	-0.43277928
187	0xbed9c1a4	-0.4253055
188	0xbebdf324	-0.37099564
189	0xbebdd51e	-0.37076658
190	0xbecb105a	-0.39660913
191	0xbe8c1115	-0.27356783
192	0x3e08717f	0.13324545
193	0x3e7c65e2	0.2464824
194	0x3d8c2372	0.06842698
195	0x3e27e52f	0.1639602
196	0x3e85dd26	0.26145285
197	0x3ec89948	0.39179444
198	0x3eba6559	0.36405447
199	0x3ee2cee2	0.44298464
200	0x3de21a77	0.11040204
201	0xbe064c6c	-0.1311509
202	0x3e3346e9	0.17507519
203	0x3e205dd9	0.156608
204	0x3ee9afbc	0.45641887
205	0x3f119d46	0.56880605
206	0x3f14e8e9	0.5816789
207	0x3f281b0a	0.6566626
208	0x3e773978	0.24143016
209	0x3e1835d9	0.14864291
210	0x3e2e3167	0.17011033
211	0x3e62b336	0.22138676
212	0x3ebf9ad6	0.37422818
213	0x3f06c29f	0.5264072
214	0x3f12096d	0.5704563
215	0x3efc5766	0.4928543
216	0x3e99c186	0.3003046
217	0x3ea08a60	0.31355572
218	0x3e322b28	0.17399275
219	0x3f038787	0.51378673
220	0x3ee55d8a	0.44797927
221	0x3f03c6cf	0.5147523
222	0x3f0b5b0f	0.5443582
223	0x3f3014ec	0.68781924
224	0x3e058af0	0.13041282
225	0x3ece4361	0.4028578
226	0x3eeb1ee0	0.45921993
227	0x3f04e857	0.5191702
228	0x3edf747e	0.43643564
229	0x3f11011f	0.56642336
230	0x3f17a066	0.59229124
231	0x3f13eb59	0.5778099
232	0x3ed6dc1f	0.41964814
233	0x3e954376	0.2915303
234	0x3efef4f4	0.4979626
235	0x3ef25348	0.47329164
236	0x3f1c0e0a	0.6095892
237	0x3ee5be46	0.4487173
238	0x3f0a6048	0.54053164
239	0x3f2ba42a	0.6704737
240	0x3db9cb74	0.09072009
241	0x3e99f212	0.30067497
242	0x3e9abd14	0.3022238
243	0x3ee743f2	0.45169026
244	0x3ed7ebfc	0.4217223
245	0x3eca71db	0.3953999
246	0x3f06200c	0.5239265
247	0x3f19bbb1	0.6005202
248	0x3ed3d54b	0.41373667
249	0x3ef364c9	0.4753783
250	0x3f11d211	0.5696116
251	0x3ed8d96c	0.4235338
252	0x3ec82dc8	0.39097428
253	0x3f03ad4c	0.51436305
254	0x3f160477	0.5860056
255	0x3f0ea620	0.55722237
