results/VQCINet64/model.pt (torch, 495031 bytes, 155 tensors)

feature_encoder.feature_encoder1.conv3x3_bn.conv.weight f4 [2, 2, 3, 3]
0	0x3fa4b673	1.2868179
1	0x3d633aed	0.055476118
2	0xbe363746	-0.17794523
3	0xbdd02608	-0.10163504
4	0xbc228d31	-0.009921358
5	0x3d3b4dc2	0.045728453
6	0xbdc2f978	-0.09520239
7	0xbd504ac5	-0.050852556
8	0x3d52727a	0.051378705
9	0xbbbc03cd	-0.005737758
10	0xbd966a0a	-0.07344444
11	0x3c80458a	0.015658159
12	0x3e46028a	0.19336906
13	0x3d5e1174	0.054215863
14	0xbcfdece5	-0.03099675
15	0x3e27b7d0	0.16378713
16	0xbcc5e19b	-0.024155429
17	0xbc03f2bb	-0.008053477
18	0x3e7f86dd	0.2495379
19	0xbfe1a63b	-1.7628855
20	0xbe96873d	-0.29400054
21	0xbe89bceb	-0.26901945
22	0x3e1cc5e7	0.15309869
23	0xbd166ef5	-0.03672691
24	0xbf0751c1	-0.5285912
25	0x3e478421	0.19483997
26	0xbb717a89	-0.0036846718
27	0xbe8c73c2	-0.27432066
28	0x3e4db718	0.20089376
29	0x3d9befc6	0.076140925
30	0x3e1682bf	0.14698313
31	0xbe925290	-0.28578615
32	0xbde6a746	-0.112623736
33	0xbe0700e7	-0.13183938
34	0xbe537b1d	-0.20652433
35	0xbcfd7887	-0.030941261

feature_encoder.feature_encoder1.conv3x3_bn.bn.weight f4 [2]
0	0x3fa2404a	1.267587
1	0x3f37a586	0.71736944

feature_encoder.feature_encoder1.conv3x3_bn.bn.bias f4 [2]
0	0xbe65ab4e	-0.22428629
1	0x3e4ba474	0.19886953

feature_encoder.feature_encoder1.conv3x3_bn.bn.running_mean f4 [2]
0	0x00000000	0.0
1	0x00000000	0.0

feature_encoder.feature_encoder1.conv3x3_bn.bn.running_var f4 [2]
0	0x3f800000	1.0
1	0x3f800000	1.0

feature_encoder.feature_encoder1.conv1x9_bn.conv.weight f4 [2, 2, 1, 9]
0	0x3b682540	0.0035422593
1	0x3df3e4a0	0.11908841
2	0xbec2ad34	-0.38022768
3	0xbc9b244e	-0.01893821
4	0xbf07a7ec	-0.52990603
5	0x3dd9fb6a	0.106436566
6	0x3da18928	0.078874886
7	0x3d39cd4d	0.045361806
8	0x3b4a4ac1	0.003086731
9	0x3ce0f99f	0.027462779
10	0xbf330262	-0.6992551
11	0x3d68462e	0.056707554
12	0x3ed6a997	0.41926262
13	0x3d4db0a2	0.05021728
14	0xbc8005d2	-0.015627775
15	0xbc92f24c	-0.017937802
16	0x3ce10c9e	0.027471837
17	0x3d2520d1	0.0403145
18	0x3fab5fff	1.3388671
19	0x3ee1c8f8	0.4409864
20	0x3e941fe5	0.28930584
21	0x3e1eb543	0.15498833
22	0x3e21468f	0.15749572
23	0x3da23878	0.07920927
24	0x3c9b846f	0.018984048
25	0x3c974267	0.01846428
26	0x3cc4e170	0.024033278
27	0x3f395027	0.7238793
28	0x3e618008	0.22021496
29	0x3df244a1	0.11829496
30	0xbd9a641e	-0.07538627
31	0x3c343d86	0.011000996
32	0x3b36b751	0.0027880261
33	0x3d173c45	0.036922712
34	0x3c4eec34	0.012629557
35	0x3c2763b6	0.010216644

feature_encoder.feature_encoder1.conv1x9_bn.bn.weight f4 [2]
0	0x3f51823e	0.8183936
1	0x3ec8fea6	0.3925678

feature_encoder.feature_encoder1.conv1x9_bn.bn.bias f4 [2]
0	0xbfc5bbf2	-1.5447981
1	0x3f6b3764	0.91881394

feature_encoder.feature_encoder1.conv1x9_bn.bn.running_mean f4 [2]
0	0x00000000	0.0
1	0x00000000	0.0

feature_encoder.feature_encoder1.conv1x9_bn.bn.running_var f4 [2]
0	0x3f800000	1.0
1	0x3f800000	1.0

feature_encoder.feature_encoder1.conv9x1_bn.conv.weight f4 [2, 2, 9, 1]
0	0x3f3dd0ca	0.7414671
1	0x3df57706	0.119855925
2	0x3df91c29	0.12163574
3	0x3d81f04b	0.0634466
4	0x3e6bec58	0.23039377
5	0x3e93b6b2	0.28850323
6	0x3e6936f0	0.22774863
7	0x3e7e35b0	0.24825168
8	0x3e6626b0	0.22475696
9	0x3dea603e	0.11444138
10	0x3f4676a0	0.7752476
11	0xbd906bcb	-0.0705181
12	0xbea01a82	-0.31270224
13	0xbc6a314c	-0.01429398
14	0x3f0ec5e0	0.55770683
15	0x3eb39208	0.3507235
16	0x3f3c122c	0.7346523
17	0x3ecac957	0.39606735
18	0x3ea101e6	0.3144676
19	0x3dc33308	0.09531218
20	0x3e02ca5a	0.12772503
21	0x3e26c4c9	0.16286005
22	0x3e50638a	0.20350471
23	0x3e5fc785	0.21853454
24	0x3e7dfe46	0.24804029
25	0x3e71cd6b	0.23613517
26	0x3e3b0291	0.18262698
27	0x3f268670	0.65048885
28	0xbd83688f	-0.06416427
29	0x3dfb16c6	0.12260203
30	0x3ee8a7c1	0.45440486
31	0x3f0437b8	0.5164752
32	0x3da71df9	0.08160014
33	0x3ead45bc	0.33842266
34	0xbe04e70c	-0.12978762
35	0x3d0e96b2	0.034811683

feature_encoder.feature_encoder1.conv9x1_bn.bn.weight f4 [2]
0	0x3f32ed80	0.69893646
1	0x3f4bb996	0.79580057

feature_encoder.feature_encoder1.conv9x1_bn.bn.bias f4 [2]
0	0x4001f317	2.030462
1	0x3fd3e339	1.6553718

feature_encoder.feature_encoder1.conv9x1_bn.bn.running_mean f4 [2]
0	0x00000000	0.0
1	0x00000000	0.0

feature_encoder.feature_encoder1.conv9x1_bn.bn.running_var f4 [2]
0	0x3f800000	1.0
1	0x3f800000	1.0

feature_encoder.feature_encoder3.conv3x3_bn.conv.weight f4 [2, 2, 3, 3]
0	0x3e8a318f	0.26990935
1	0x3da2474b	0.07923754
2	0x3de9a8b5	0.114091314
3	0x3ea889fd	0.32917777
4	0xbcc6de24	-0.024275847
5	0x3d7a77bd	0.061149348
6	0x3ed2c857	0.41168472
7	0xbe092354	-0.13392383
8	0xbde92639	-0.113842435
9	0x3e87f570	0.2655444
10	0xbe46bdca	-0.19408336
11	0xbe12875a	-0.14309445
12	0x3e091516	0.1338695
13	0xbf5fdeb3	-0.8744919
14	0xbea3c755	-0.31988016
15	0x3e925ad0	0.2858491
16	0xbda3d6d4	-0.079999596
17	0xbe234aae	-0.15946457
18	0x3c980f7f	0.018562077
19	0x3c7a2aa4	0.015268955
20	0xbdff95e3	-0.124797605
21	0x3e335a5a	0.17514935
22	0x3e3b2352	0.18275192
23	0x3c0a55a2	0.008443268
24	0x3ed14f1c	0.40880668
25	0x3e9b0a6a	0.30281383
26	0xbdddcccb	-0.10830077
27	0x3e192ee8	0.149593
28	0x3b8b7dc6	0.0042569367
29	0x3e36cf6c	0.17852563
30	0x3e7b67d2	0.24551323
31	0x3df49f92	0.11944498
32	0x3f4d63b6	0.8023027
33	0x3e84e16e	0.2595324
34	0xbc4f0659	-0.012635791
35	0x3bd6721a	0.0065443637

feature_encoder.feature_encoder3.conv3x3_bn.bn.weight f4 [2]
0	0x3fa4219b	1.2822756
1	0x3f22a8d6	0.63538873

feature_encoder.feature_encoder3.conv3x3_bn.bn.bias f4 [2]
0	0xbe8db152	-0.27674347
1	0xbf9a4890	-1.2053394

feature_encoder.feature_encoder3.conv3x3_bn.bn.running_mean f4 [2]
0	0x00000000	0.0
1	0x00000000	0.0

feature_encoder.feature_encoder3.conv3x3_bn.bn.running_var f4 [2]
0	0x3f800000	1.0
1	0x3f800000	1.0

feature_encoder.feature_encoder3.conv1x9_bn.conv.weight f4 [2, 2, 1, 3]
0	0xbefe980b	-0.49725375
1	0xbd20a8bc	-0.039223418
2	0xbc4166d1	-0.0118042985
3	0xbed4299e	-0.41438
4	0xbf874bd5	-1.0570017
5	0x3bbcb9a3	0.0057594343
6	0xbf36b139	-0.7136417
7	0x3d39a3b2	0.045322128
8	0x3cb42047	0.021988047
9	0xbf69f85b	-0.91394585
10	0x3ea9c6e9	0.3315957
11	0xbdd5002c	-0.104004234

feature_encoder.feature_encoder3.conv1x9_bn.bn.weight f4 [2]
0	0x3fa7af9b	1.3100466
1	0x3f32cca8	0.6984353

feature_encoder.feature_encoder3.conv1x9_bn.bn.bias f4 [2]
0	0xbf4be635	-0.79648143
1	0x3d8a1f10	0.06744206

feature_encoder.feature_encoder3.conv1x9_bn.bn.running_mean f4 [2]
0	0x00000000	0.0
1	0x00000000	0.0

feature_encoder.feature_encoder3.conv1x9_bn.bn.running_var f4 [2]
0	0x3f800000	1.0
1	0x3f800000	1.0

feature_encoder.feature_encoder3.conv9x1_bn.conv.weight f4 [2, 2, 3, 1]
0	0x3c650e9a	0.013980532
1	0x3ea0d348	0.31411195
2	0xbd6fb8c3	-0.058525812
3	0x3d265d58	0.040616363
4	0x3fb64eb7	1.4242772
5	0xbe4360a1	-0.1907983
6	0x3f7c2510	0.9849405
7	0x3e111938	0.14169776
8	0x3e1d3c35	0.15354998
9	0xbf458b6c	-0.77165866
10	0xbe5bce30	-0.21465373
11	0x3d1a7367	0.037707713

feature_encoder.feature_encoder3.conv9x1_bn.bn.weight f4 [2]
0	0x3f767400	0.9627075
1	0x3f54a287	0.830605

feature_encoder.feature_encoder3.conv9x1_bn.bn.bias f4 [2]
0	0xbfdbc5a2	-1.7169688
1	0xbf55eaac	-0.83561206

feature_encoder.feature_encoder3.conv9x1_bn.bn.running_mean f4 [2]
0	0x00000000	0.0
1	0x00000000	0.0

feature_encoder.feature_encoder3.conv9x1_bn.bn.running_var f4 [2]
0	0x3f800000	1.0
1	0x3f800000	1.0

feature_encoder.feature_encoder2.conv.weight f4 [2, 2, 3, 3]
0	0x3dced665	0.10099486
1	0xbb354649	-0.0027660301
2	0xbd6e86ba	-0.058233954
3	0x3dc0d24e	0.094151124
4	0x3e27f379	0.16401471
5	0xbd823729	-0.06358177
6	0x3e551dbe	0.20812127
7	0xbe2160c1	-0.15759565
8	0xbe238da9	-0.15972008
9	0x3f744a2f	0.95425695
10	0xbf04f5ab	-0.5193736
11	0xbe47e931	-0.19522549
12	0xbf0ceed6	-0.55051935
13	0x3da6cd56	0.081446335
14	0x3d8abe95	0.06774632
15	0x3e3d7124	0.18500191
16	0xbe51891f	-0.20462464
17	0xbc05b1c0	-0.008160055
18	0xbb416e89	-0.0029515347
19	0xbc89f3ad	-0.016839826
20	0xbdc33aae	-0.09532677
21	0xbd95f984	-0.07322982
22	0xbd86bf05	-0.06579403
23	0x3e21bfdf	0.1579585
24	0x3c9052f2	0.017617676
25	0x3db9949c	0.09061548
26	0xbd50fa4e	-0.05101996
27	0xbe122c1a	-0.14274636
28	0xbdf7d684	-0.121014625
29	0x3e434a12	0.19071224
30	0xbe4705ec	-0.19435853
31	0xbd1466b3	-0.036230754
32	0x3cba35f8	0.022730812
33	0xbcbe103e	-0.023201104
34	0xbd3a279b	-0.045447927
35	0x3b0588f6	0.0020375825

feature_encoder.feature_encoder2.bn.weight f4 [2]
0	0x3f66f0e7	0.9021134
1	0x3f65092e	0.8946713

feature_encoder.feature_encoder2.bn.bias f4 [2]
0	0xbf477f1c	-0.7792833
1	0xbde53f42	-0.11193706

feature_encoder.feature_encoder2.bn.running_mean f4 [2]
0	0x00000000	0.0
1	0x00000000	0.0

feature_encoder.feature_encoder2.bn.running_var f4 [2]
0	0x3f800000	1.0
1	0x3f800000	1.0

feature_encoder.feature_encoder_conv.conv1.weight f4 [12, 6, 2, 2]
0	0xbf158b93	-0.584161
1	0x3da51fe5	0.08062724
2	0x3eca2365	0.3948013
3	0xbf12a546	-0.5728344
4	0x3dc7e6cd	0.09760819
5	0xbd561f39	-0.05227587
6	0x3e39e24c	0.18152732
7	0xbdee4e47	-0.11636024
8	0xbf0aa5b2	-0.5415908
9	0x3c2fd196	0.0107311215
10	0xbe3dc397	-0.18531643
11	0xbde8b6de	-0.11363004
12	0xbe0f14b9	-0.13972749
13	0x3cbf047b	0.023317566
14	0xbd303710	-0.04302126
15	0x3d8cc00d	0.06872568
16	0xbdb3ff05	-0.087888755
17	0xbe3ae2b0	-0.18250537
18	0xbd0cc090	-0.03436333
19	0x3c9866e1	0.018603744
20	0x3e757fb4	0.23974496
21	0x3dd74a5c	0.1051223
22	0x3ef7f52b	0.48429236
23	0x3e71af86	0.23602113
24	0xbe25e852	-0.16201904
25	0x3eab32e0	0.33437252
26	0xbd8b7bca	-0.0681072
27	0xbd17ad72	-0.037030645
28	0x3eae9d7b	0.34104523
29	0xbdd97f44	-0.10619977
30	0x3eb61c75	0.35568586
31	0xbe240642	-0.16018012
32	0xbd440900	-0.047860146
33	0x3d874f9e	0.06606983
34	0xbd73b8f6	-0.059502564
35	0x3dd36cc2	0.10323478
36	0x3ddaaaf3	0.10677137
37	0x3e10f6ed	0.14156695
38	0x3dafe324	0.085882455
39	0x3e31e8e1	0.17373993
40	0x3e0da631	0.13832928
41	0x3e994445	0.29934898
42	0xbc446e73	-0.011989224
43	0xbd771a13	-0.0603276
44	0x3d935832	0.07194556
45	0xbd5ed5c8	-0.054403096
46	0x3db20542	0.08692409
47	0xbc9271fc	-0.017876618
48	0x3e48603b	0.19567959
49	0xbec0485f	-0.37555215
50	0xbb8f2bbe	-0.004369228
51	0xbe07edfb	-0.13274376
52	0x3eb1d66c	0.34733903
53	0x3e0d715d	0.13812776
54	0x3ebaf707	0.36516592
55	0xbe0e646b	-0.13905494
56	0x3e0a09ee	0.1348035
57	0x3d72fed1	0.059325043
58	0x3e152305	0.1456414
59	0x3daae516	0.08344476
60	0x3e4247a3	0.1897264
61	0x3e2449b8	0.16043746
62	0xbda15a88	-0.078785956
63	0x3db9057d	0.0903425
64	0xbda2aa1c	-0.07942602
65	0x3ec0be63	0.37645254
66	0xbdcea25e	-0.10089563
67	0xbe2816bd	-0.16414924
68	0x3dc5ec92	0.09664263
69	0xbe084ee6	-0.13311347
70	0x3d202ad2	0.039103337
71	0xbd3fba71	-0.046808664
72	0x3d979fc9	0.074035235
73	0xbd955615	-0.072918095
74	0x3ec9fa33	0.394487
75	0x3d81c4c2	0.06336357
76	0x3e621100	0.22076797
77	0xbed98eeb	-0.4249185
78	0xbc20f24c	-0.009823393
79	0x3e5734c6	0.21016225
80	0x3ceb9792	0.028758798
81	0x3db6569a	0.08903237
82	0x3c2c9b5e	0.010535089
83	0x3dbb790e	0.09153949
84	0xbebc4542	-0.3677159
85	0x3e381f81	0.17980768
86	0x3eaab31b	0.33339772
87	0x3e7f960e	0.24959585
88	0x3dc143b9	0.09436745
89	0x3eefa89b	0.46808323
90	0x3ea289c4	0.31745732
91	0x3e6fe692	0.234278
92	0xbe8131b0	-0.2523322
93	0x3c8da03e	0.017288323
94	0x3c626eb1	0.013820336
95	0x3d00e276	0.03146597
96	0xbe0aa4f2	-0.13539484
97	0x3e043186	0.12909517
98	0xbdc9a649	-0.098461695
99	0x3e4dd20f	0.20099662
100	0xbe12c980	-0.14334679
101	0x3f27f252	0.65604126
102	0x3e50a0c7	0.20373832
103	0xbf15689c	-0.58362746
104	0xbd99a639	-0.075024076
105	0xbc0edf0c	-0.008720171
106	0xbe104525	-0.14088877
107	0xbd8d975a	-0.06913634
108	0xbd4fbc8a	-0.050716914
109	0xbe1a84fe	-0.15089795
110	0x3e845c92	0.25851876
111	0xbd6cdaea	-0.05782596
112	0x3eb3e2ba	0.35133916
113	0x3e50812a	0.20361772
114	0x3e8456d2	0.2584749
115	0x3ef3b20a	0.4759677
116	0xbd6b3f5e	-0.05743348
117	0x3cb1254e	0.021624234
118	0xbe9fb3cb	-0.3119186
119	0x3db077c4	0.086165935
120	0x3eaf4a8f	0.3423657
121	0xbd62e4e1	-0.055394057
122	0x3e9ec464	0.3100921
123	0xbd24d3ed	-0.04024117
124	0xbe253ec9	-0.16137232
125	0x3cb06b92	0.021535669
126	0xbe96f915	-0.2948691
127	0xbe8826ca	-0.26592094
128	0xbea5b729	-0.32366303
129	0x3cceddd5	0.025252262
130	0xbe151c0a	-0.14561477
131	0x3d2753dc	0.04085146
132	0x3d2462a3	0.04013313
133	0x3dc6afdf	0.097015135
134	0x3c8645bd	0.016390676
135	0x3d51a830	0.051185787
136	0xbe6d2f7c	-0.23162645
137	0xbe9397d4	-0.28826773
138	0xbdac9524	-0.08426884
139	0x3ee82318	0.45339274
140	0x3e43cf1a	0.19121972
141	0xbd51fde4	-0.05126752
142	0x3e4daa56	0.20084509
143	0xbdc694e6	-0.09696369
144	0x3eccaec1	0.39977077
145	0xbd25632c	-0.04037778
146	0x3e9f4afb	0.31111893
147	0xbe396e96	-0.18108591
148	0xbe786d84	-0.24260527
149	0x3c9fbb42	0.019498471
150	0x3ea845a9	0.32865646
151	0xbc105c79	-0.00881111
152	0x3c86e52c	0.0164667
153	0xbd249264	-0.04017867
154	0x3b2e7286	0.0026618554
155	0xbd5417cc	-0.051780507
156	0x3cf7cc92	0.030248914
157	0x3b366dee	0.002783652
158	0xbe1b4a48	-0.15165055
159	0xbd7c451d	-0.06158935
160	0x3dad3776	0.08457844
161	0xbdf095cc	-0.117473215
162	0x3ee123f2	0.43972737
163	0xbe8d26b9	-0.27568606
164	0x3d26feb1	0.040770236
165	0x3dab760e	0.083721265
166	0xbec7bed8	-0.3901279
167	0x3a84dd8b	0.0010136826
168	0xbe5ac9e8	-0.21366084
169	0xbe20abf6	-0.15690598
170	0xbdf5e29e	-0.120061144
171	0xbe88e99e	-0.26740736
172	0xbeb6942e	-0.35659927
173	0xbe74c566	-0.23903427
174	0x3e9b7cf6	0.30368775
175	0xbe9c46df	-0.3052282
176	0x3d904870	0.07045066
177	0xbdda523a	-0.10660215
178	0xbf0d7b23	-0.55266017
179	0xbdd0f210	-0.1020242
180	0x3d110500	0.03540516
181	0xbe695c97	-0.22789226
182	0x3e8d03c5	0.27541938
183	0xbe174e13	-0.14775877
184	0xbf023320	-0.5085926
185	0x3e9ea4f5	0.30985227
186	0xbe2ffbfe	-0.17185971
187	0xbc9dd448	-0.019266263
188	0x3e1c3130	0.15253139
189	0x3db29dcf	0.08721506
190	0xbbd94efa	-0.006631729
191	0x3e40fef5	0.18847258
192	0xbcc5a064	-0.024124332
193	0x3f01b03d	0.50659543
194	0x3ce094e8	0.027414754
195	0xbed32086	-0.4123575
196	0xbdb772bd	-0.089574315
197	0x3f03c992	0.51479447
198	0x3dc75cc6	0.09734492
199	0x3e34e395	0.1766494
200	0xbe15f32c	-0.14643544
201	0xbd8bea62	-0.06831814
202	0xbe136fa3	-0.14398055
203	0x3ce342de	0.027741846
204	0xbc9039ec	-0.017605744
205	0x3e246d67	0.16057359
206	0xbe0d45df	-0.13796185
207	0x3bc0e500	0.005886674
208	0x3e6774c6	0.2260314
209	0x3ee28146	0.44239253
210	0xbe516e2d	-0.20452185
211	0x3e82cdfe	0.25547785
212	0xbee8415b	-0.45362362
213	0x3d9a07dd	0.07521031
214	0xbe0c906a	-0.13726965
215	0x3de9fcc4	0.11425164
216	0xbcf421f7	-0.029801352
217	0x3d355b57	0.04427656
218	0xbb8080b3	-0.003921592
219	0xbc203e8a	-0.0097805355
220	0x3e187ca0	0.1489129
221	0xbe720290	-0.2363379
222	0xbd894747	-0.06703048
223	0xbdfacbc6	-0.12245898
224	0xbf5e12a1	-0.86747175
225	0xbb960716	-0.0045784814
226	0x3d77e0ee	0.060517244
227	0xbcb98501	-0.022646429
228	0x3d7a0b80	0.061046124
229	0xbcad6f81	-0.021171333
230	0xbc701614	-0.014653701
231	0xbc981227	-0.018563343
232	0x3d0f0dbf	0.03492522
233	0x3e8ddaf8	0.27706122
234	0x3dfd33f7	0.12363427
235	0x3ea0c275	0.3139836
236	0xbe9567f3	-0.2918087
237	0x3d601a6b	0.054712694
238	0xbdc12bf1	-0.09432209
239	0x3cd2f4f1	0.025751563
240	0x3d7860f8	0.06063935
241	0xbe1e6ce4	-0.15471226
242	0x3e965925	0.29364887
243	0xbe702a90	-0.23453736
244	0x3ef3c306	0.4760973
245	0xbd540924	-0.05176653
246	0xbde0e2fc	-0.10980794
247	0x3e075086	0.13214311
248	0x3db9e253	0.09076371
249	0x3d14d4f2	0.036335893
250	0x3e1135fc	0.1418075
251	0x3c719614	0.014745254
252	0x3ee89a3e	0.45430177
253	0x3d8fd52e	0.07023083
254	0x3e8fef0c	0.28112066
255	0x3da9bdc6	0.082881495

feature_encoder.feature_encoder_conv.bn1.weight f4 [12]
0	0x3f5ef24a	0.87088454
1	0x3f77ed14	0.9684613
2	0x3f959ad9	1.1687881
3	0x3f6a2257	0.9145865
4	0x3f5a247c	0.8521192
5	0x3f925255	1.1431376
6	0x3f881998	1.063281
7	0x3fa01ddf	1.2509116
8	0x3f2ea404	0.6821902
9	0x3f7f6ac6	0.997723
10	0x3f8a5119	1.0805999
11	0x3f806071	1.0029432

feature_encoder.feature_encoder_conv.bn1.bias f4 [12]
0	0x3e80151b	0.25016102
1	0xbb9e0b0b	-0.004823094
2	0x3e8430c8	0.25818467
3	0xbdaa3b63	-0.08312108
4	0x3cc9a002	0.02461243
5	0x3e4b2fe2	0.19842485
6	0x3e8a2a2b	0.26985297
7	0xbe9851be	-0.29749864
8	0xbe529792	-0.20565632
9	0xbf12dbd0	-0.5736666
10	0xbe341993	-0.17587881
11	0x3b76f3e5	0.0037681994

feature_encoder.feature_encoder_conv.bn1.running_mean f4 [12]
0	0x00000000	0.0
1	0x00000000	0.0
2	0x00000000	0.0
3	0x00000000	0.0
4	0x00000000	0.0
5	0x00000000	0.0
6	0x00000000	0.0
7	0x00000000	0.0
8	0x00000000	0.0
9	0x00000000	0.0
10	0x00000000	0.0
11	0x00000000	0.0

feature_encoder.feature_encoder_conv.bn1.running_var f4 [12]
0	0x3f800000	1.0
1	0x3f800000	1.0
2	0x3f800000	1.0
3	0x3f800000	1.0
4	0x3f800000	1.0
5	0x3f800000	1.0
6	0x3f800000	1.0
7	0x3f800000	1.0
8	0x3f800000	1.0
9	0x3f800000	1.0
10	0x3f800000	1.0
11	0x3f800000	1.0

feature_encoder.feature_encoder_conv.conv2.weight f4 [12, 12, 2, 2]
0	0xbd3d5b27	-0.046229508
1	0x3d01b7be	0.03166937
2	0x3dbddda8	0.09270793
3	0xbd9d66ef	-0.07685649
4	0x3ec2bf29	0.3803647
5	0x3d817388	0.06320864
6	0x3c764293	0.015030521
7	0x3eb5f56b	0.35538802
8	0xbe7c41b4	-0.24634439
9	0xbc957074	-0.018242098
10	0x3f222d1e	0.63350093
11	0x3d0414c0	0.03224635
12	0x3d3bc485	0.045841713
13	0x3e96fb76	0.29488724
14	0xbe49b860	-0.1969924
15	0xbe92f777	-0.28704426
16	0xbe631bca	-0.2217857
17	0xbe980afd	-0.29695883
18	0xba0c5039	-0.000535253
19	0x3d127044	0.035751596
20	0xbe060473	-0.13087635
21	0x3d08cad8	0.033396572
22	0x3f2898e2	0.6585828
23	0xbe9132c4	-0.28359044
24	0xbf55f551	-0.8357745
25	0xbc3c4830	-0.01149182
26	0xbe65769a	-0.22408524
27	0xbdd718e3	-0.10502794
28	0xbea408be	-0.3203792
29	0xbe3d332a	-0.18476549
30	0xbe628652	-0.22121552
31	0x3e29d012	0.16583279
32	0xbe70ebcf	-0.23527454
33	0x3cc43a11	0.02395347
34	0x3d9c1a12	0.0762216
35	0x3e91a86e	0.28448814
36	0xbf16f5e7	-0.5896897
37	0x3ef47555	0.47745767
38	0xbe22eaca	-0.15909877
39	0xbd4c0de3	-0.04981793
40	0x3e822e93	0.25426158
41	0x3ebb97e2	0.36639315
42	0x3d49a054	0.049225166
43	0x3e144594	0.14479667
44	0xbd8f9070	-0.07009971
45	0x3c2931a6	0.0103267785
46	0xbe3fcaf6	-0.18729767
47	0x3db63aac	0.088979095
48	0xbe875515	-0.264321
49	0x3c22fba5	0.009947692
50	0xbdbe9758	-0.0930621
51	0x3d58330c	0.052783057
52	0x3d774763	0.060370814
53	0xbdbbc7a9	-0.091689415
54	0x3f02306f	0.50855154
55	0xbe019db9	-0.12657823
56	0xbe13252f	-0.14369653
57	0xbd632ea7	-0.055464413
58	0x3e4268db	0.18985312
59	0xbe82c1a8	-0.25538373
60	0x3c0307b4	0.007997442
61	0x3dc4e8c1	0.09614707
62	0xbd91e4bc	-0.07123706
63	0x3e386b66	0.18009719
64	0x3e5c4f24	0.21514565
65	0xbdf26750	-0.118361115
66	0x3d99f6a9	0.0751775
67	0xbf5d0382	-0.8633348
68	0xbe9ffc3d	-0.3124713
69	0xbdc2eaab	-0.095174156
70	0xbdd14850	-0.10218871
71	0xbd6bfbb4	-0.05761309
72	0xbea1f20d	-0.31629983
73	0x3df53825	0.11973599
74	0x3e9302be	0.2871303
75	0x3bd6dced	0.006557098
76	0xbe493876	-0.19650444
77	0xbe68562c	-0.22689122
78	0x3e128045	0.14306743
79	0xbc652f32	-0.013988303
80	0x3db4fc2c	0.088371605
81	0xbd18f773	-0.03734536
82	0x3c92a496	0.017900746
83	0x3e17df9e	0.14831397
84	0x3d736254	0.059419945
85	0x3cb62179	0.022232758
86	0xbd9b5db3	-0.07586231
87	0x3e82dc00	0.25558472
88	0x3e8e7297	0.278218
89	0x3d59214b	0.053010266
90	0xbe6ec74b	-0.23318212
91	0x3e0084ec	0.12550706
92	0x3cebcc4d	0.028783942
93	0xbdf10e04	-0.117702514
94	0x3e5ebcbb	0.21751682
95	0x3e0c33ff	0.1369171
96	0xbeba5209	-0.36390713
97	0x3e6f5327	0.23371564
98	0xbe09bc2f	-0.13450693
99	0xbe25de11	-0.16197993
100	0xbdfa1bf8	-0.12212366
101	0xbdb61a4d	-0.08891735
102	0xbd63a455	-0.05557664
103	0x3dd9958e	0.106242284
104	0x3e092c76	0.13395867
105	0x3e661ae8	0.22471201
106	0x3dc666ec	0.096875995
107	0xbd616b78	-0.05503413
108	0xbde5a9d2	-0.11214031
109	0x3d909950	0.07060492
110	0x3d9bc1d8	0.07605332
111	0x3ddc8ae4	0.10768679
112	0xbbcf7a19	-0.006331694
113	0x3d59d4f7	0.053181615
114	0xbe69083c	-0.22757047
115	0xbeac1cdc	-0.33615768
116	0x3eb48970	0.35261106
117	0xbe274c98	-0.16337812
118	0xbedb1881	-0.42792132
119	0xbcaa9a47	-0.020825518
120	0xbea8d5da	-0.32975656
121	0xbb3aa802	-0.0028481488
122	0xbe563176	-0.20917305
123	0x3dd2eb4a	0.10298784
124	0xbe373e4b	-0.17894857
125	0xbd81ad36	-0.063318655
126	0xbedd1922	-0.43183237
127	0x3e13d871	0.14438035
128	0x3de1f3a1	0.11032797
129	0x3e0bce04	0.13652807
130	0x3c2f6e18	0.010707401
131	0x3d816ad9	0.06319208
132	0xbde907f8	-0.11378473
133	0x3e199340	0.14997578
134	0x3ef9a58e	0.4875912
135	0xbd3d8f50	-0.04627925
136	0x3d86c34f	0.06580221
137	0x3e4a0506	0.19728479
138	0x3e8680f6	0.26270264
139	0x3da452fa	0.08023639
140	0x3ec74384	0.38918698
141	0xbdce996a	-0.10087855
142	0x3d07c57f	0.03314733
143	0x3e2f0dc2	0.17095092
144	0xbed289af	-0.4112067
145	0xbcf77211	-0.030205758
146	0x3dc79188	0.09744555
147	0xbe002cbe	-0.12517068
148	0x3e42f2aa	0.19037881
149	0xbc1bdfd1	-0.009513811
150	0x3de9488d	0.11390791
151	0xbe093d82	-0.1340237
152	0x3dc520b7	0.096253805
153	0x3dbe1e21	0.092830904
154	0xbe854002	-0.26025397
155	0x3d56cc84	0.052441135
156	0x3ecb45db	0.39701733
157	0xbd3037af	-0.043021854
158	0xbb82473b	-0.0039757765
159	0x3c0afaee	0.008482678
160	0x3e2c0641	0.1679926
161	0x3e3051cf	0.17218708
162	0x3e433335	0.19062503
163	0x3e946348	0.28981996
164	0xbed2a138	-0.41138625
165	0xbcd290d7	-0.02570383
166	0x3e9df186	0.3084833
167	0x3cb2dece	0.021834757
168	0xbb632f8a	-0.0034665787
169	0x3e3e9eaa	0.18615213
170	0xbdb01978	-0.08598608
171	0xbd983dbd	-0.07433651
172	0xbe2bd2ca	-0.16779628
173	0xbdaa2221	-0.08307291
174	0xbed21297	-0.41029808
175	0x3cb0268d	0.021502757
176	0x3d40baf8	0.047053307
177	0xbe74081b	-0.23831217
178	0x3d8eb8fe	0.06968878
179	0xbded079a	-0.115737155
180	0x3dc66b71	0.096884616
181	0x3d057ca0	0.032589555
182	0xbda545f8	-0.08069986
183	0xbd6f7401	-0.05846024
184	0xbeeb2080	-0.45923233
185	0x3cc2520a	0.02372076
186	0x3e9273f9	0.28604105
187	0x3d0fb5f9	0.035085652
188	0x3f07b104	0.5300448
189	0xbdb64d72	-0.0890149
190	0xbd38531a	-0.045001127
191	0x3c91b39f	0.017785845
192	0x3d01beb0	0.031675994
193	0xbde08692	-0.10963167
194	0xbe60e1a0	-0.21961069
195	0xbd0d626b	-0.034517687
196	0xbe7674a2	-0.2406793
197	0x3e763f73	0.24047641
198	0x3e854084	0.26025784
199	0xbe5650a1	-0.20929195
200	0xbec23304	-0.37929547
201	0xbd9601b0	-0.073245406
202	0xbe0dc23f	-0.1384363
203	0x3dc74e60	0.09731746
204	0x3ebee512	0.37284142
205	0x3db3849f	0.0876553
206	0xbd808c6a	-0.06276782
207	0x3decc637	0.11561244
208	0xbd142838	-0.036171168
209	0xbe66c360	-0.22535467
210	0x3cadaef8	0.021201596
211	0x3e6cc946	0.23123655
212	0x3e4927a7	0.19644032
213	0xbe09765f	-0.13424061
214	0x3d552902	0.05204106
215	0xbc9559d1	-0.018231304
216	0xbefdd89e	-0.49579328
217	0xbd612821	-0.05496991
218	0xbdec36f0	-0.11533916
219	0xbdcd3a1b	-0.10020848
220	0xbf1147c6	-0.5675014
221	0x3e0ad79c	0.13558811
222	0xbedf9822	-0.43670756
223	0xbd448d6b	-0.04798643
224	0xbdb9b698	-0.0906803
225	0x3f173024	0.5905783
226	0xbdc7ea02	-0.0976143
227	0xbe669163	-0.22516398
228	0x3e0335bb	0.12813465
229	0xbec35996	-0.38154286
230	0x3d6e6917	0.05820569
231	0x3e9e80a6	0.30957526
232	0x3ed63f17	0.4184501
233	0x3e384c03	0.17997746
234	0x3f0541da	0.52053607
235	0x3df00361	0.117193945
236	0xbe3144b8	-0.1731137
237	0x3e0c111b	0.136784
238	0x3eb67507	0.3563616
239	0xbdd253b0	-0.102698684
240	0x3da229be	0.07918118
241	0xbd2afb0f	-0.041743334
242	0x3e9bb90a	0.3041461
243	0xbea32486	-0.31863803
244	0xbbd320af	-0.006443105
245	0x3e13fa63	0.14450984
246	0x3ee6fcf9	0.45114878
247	0xbe1fa6f6	-0.15591034
248	0x3d2b237d	0.04178189
249	0xbd5a7cc3	-0.05334164
250	0xbee7a187	-0.45240423
251	0x3d89da6d	0.067311145
252	0xbc012109	-0.007881411
253	0x3c49a98b	0.012308489
254	0x3e8aac6c	0.27084672
255	0x3e1a107e	0.15045354

feature_encoder.feature_encoder_conv.bn2.weight f4 [12]
0	0x3eaf6e6f	0.34263942
1	0x3eceaa4b	0.40364298
2	0x3ea932b9	0.3304651
3	0x3ea4a163	0.32154378
4	0x3ec9df9f	0.39428422
5	0x3eb651e1	0.35609344
6	0x3eb116c9	0.34587696
7	0x3eace7e4	0.33770669
8	0x3ed16742	0.40899092
9	0x3edada88	0.4274485
10	0x3ec8f106	0.39246386
11	0x3e944a58	0.2896297

feature_encoder.feature_encoder_conv.bn2.bias f4 [12]
0	0x3db60ca6	0.08889131
1	0x3d051071	0.032486383
2	0x3d8a7bf1	0.06761921
3	0x3d8af12c	0.06784281
4	0x3d71a2c9	0.058993135
5	0x3d9f9d86	0.07793717
6	0x3de721b7	0.112857275
7	0x3dbe278b	0.09284886
8	0x3e0875bc	0.13326162
9	0x3d808bff	0.06276702
10	0x3de3d1ab	0.11123975
11	0x3d137fbf	0.0360105

feature_encoder.feature_encoder_conv.bn2.running_mean f4 [12]
0	0x00000000	0.0
1	0x00000000	0.0
2	0x00000000	0.0
3	0x00000000	0.0
4	0x00000000	0.0
5	0x00000000	0.0
6	0x00000000	0.0
7	0x00000000	0.0
8	0x00000000	0.0
9	0x00000000	0.0
10	0x00000000	0.0
11	0x00000000	0.0

feature_encoder.feature_encoder_conv.bn2.running_var f4 [12]
0	0x3f800000	1.0
1	0x3f800000	1.0
2	0x3f800000	1.0
3	0x3f800000	1.0
4	0x3f800000	1.0
5	0x3f800000	1.0
6	0x3f800000	1.0
7	0x3f800000	1.0
8	0x3f800000	1.0
9	0x3f800000	1.0
10	0x3f800000	1.0
11	0x3f800000	1.0

local_encoder_fc.weight f4 [64, 768]
0	0x3ea16b68	0.31527257
1	0xbe589dc3	-0.21153931
2	0x3d79cb5b	0.06098495
3	0x3d3986ca	0.04529456
4	0x3dc48dcc	0.09597358
5	0x3d99c59e	0.075083956
6	0xbd3ef541	-0.04662061
7	0xbdda07bb	-0.10646006
8	0xbe1c31f7	-0.15253435
9	0xbc901574	-0.017588355
10	0xbbaae9fc	-0.0052158814
11	0x3c14a695	0.009072919
12	0x3d17c7a3	0.037055623
13	0x3e011e7d	0.12609287
14	0x3d57de1c	0.052702054
15	0x3e183fbe	0.14868066
16	0xbe710689	-0.23537649
17	0xbd58c4b3	-0.052921962
18	0xbbd4640e	-0.006481654
19	0x3da1cdcd	0.079005815
20	0x3d6ab25b	0.057299
21	0x3d673630	0.05644816
22	0xbd163b69	-0.03667775
23	0x3d144a8b	0.036203902
24	0x3b878db8	0.0041367672
25	0xbe502864	-0.20327908
26	0xbdae6258	-0.08514851
27	0xbe5b091f	-0.21390198
28	0xbd93a37a	-0.07208915
29	0x3c8a1442	0.016855363
30	0x3dcc49ba	0.09975
31	0x3d39cf45	0.045363683
32	0x3e48d96b	0.19614188
33	0xbcc9bdb8	-0.024626598
34	0x3c90d422	0.017679278
35	0x3e2e0bc9	0.16996683
36	0x3e644348	0.22291291
37	0x3e13f3e4	0.14448506
38	0x3d0d53e5	0.034503836
39	0xbbd8b397	-0.0066132057
40	0x3c440f82	0.011966588
41	0x3c8baac3	0.017049199
42	0x3d77fe39	0.06054518
43	0x3e1945c7	0.14968024
44	0x3d50228e	0.050814204
45	0xbcbb419a	-0.02285843
46	0xbcefd03c	-0.029274099
47	0xbc0c4687	-0.008561737
48	0xbd894670	-0.06702888
49	0x3d997cbd	0.07494495
50	0xbe1957b4	-0.14974862
51	0x3d6052f6	0.054766618
52	0xbc63360b	-0.013867865
53	0xbd91b225	-0.071140565
54	0xbd849fca	-0.0647579
55	0xbd26e18e	-0.04074245
56	0x3cbbf088	0.022941843
57	0xbc7694a1	-0.015050084
58	0xbd4a50d1	-0.04939348
59	0x3e444ad7	0.19169174
60	0x3dbf0287	0.09326654
61	0x3cf2c464	0.029634662
62	0x3d0b5535	0.034016807
63	0x3ca36cf3	0.019949412
64	0xbe647540	-0.22310352
65	0x3d828e69	0.06374819
66	0xbc8b0c42	-0.016973618
67	0xbd04da4f	-0.032434758
68	0xbdd1415e	-0.10217546
69	0xbdff8173	-0.12475862
70	0xbe0383cd	-0.12843247
71	0xbdf9c91b	-0.12196561
72	0xbdfabc4e	-0.122429475
73	0x3c9dc526	0.019259047
74	0xbc7e8132	-0.015533732
75	0xbac3d6c5	-0.0014941326
76	0x3bc3ecf1	0.0059791734
77	0x3d7ed318	0.062213033
78	0x3d7fcba6	0.062450074
79	0xbe9f54c8	-0.3111937
80	0x3d110f39	0.035414908
81	0x3d8c98d3	0.068650864
82	0x3c84b520	0.016199648
83	0xbd89c473	-0.06726923
84	0xbac8cd67	-0.0015320004
85	0xbe0c3447	-0.13691817
86	0xbe72eab6	-0.23722348
87	0xbd72ab0a	-0.059245147
88	0xbcc546ac	-0.02408155
89	0xbe535def	-0.20641302
90	0x3d6ac21c	0.057314023
91	0x3e1a4824	0.15066582
92	0xbd59ea6e	-0.053202085
93	0x3c5a20bd	0.0133134695
94	0xbe7699d6	-0.24082121
95	0xbea1095e	-0.3145246
96	0xbc7aa0c6	-0.01529712
97	0xbd0d1fc6	-0.03445413
98	0xbd2e851b	-0.042607408
99	0xbe1a6b04	-0.15079886
100	0xbd4f077f	-0.05054426
101	0xbdf351d1	-0.118808396
102	0xbe205d67	-0.1566063
103	0xbdbefcb1	-0.09325541
104	0x3d28289a	0.041054346
105	0x3e5d385e	0.21603534
106	0x3d84232c	0.06452021
107	0x3e2dee50	0.1698544
108	0x3de7abff	0.113121025
109	0x3dafe6ab	0.08588918
110	0x3d4191df	0.047258254
111	0x3c3d8f24	0.011569772
112	0x3e129312	0.14313915
113	0x3bd75c00	0.0065722466
114	0x3d9f8e06	0.07790761
115	0x3dd43584	0.1036177
116	0x3e1f3a7c	0.15549654
117	0x3e8f53dc	0.27993667
118	0x3e57e540	0.21083546
119	0x3c8e5e9d	0.0173791
120	0xbe459046	-0.19293317
121	0xbcb5a0ae	-0.022171345
122	0x3c558277	0.0130315935
123	0x3d047869	0.032341395
124	0x3e1366cd	0.14394684
125	0x3dd12504	0.10212138
126	0x3dd4fa75	0.103993334
127	0xbdb181dd	-0.086673476
128	0x3e8996ef	0.26872966
129	0x3c05fb58	0.008177601
130	0xbdabd7f3	-0.083907984
131	0xbbb9ef73	-0.0056742965
132	0x3d12e84c	0.035866067
133	0xbd8b8f0d	-0.06814394
134	0x3e520183	0.20508389
135	0xbe5e1938	-0.21689308
136	0x3bafbfc0	0.0053634346
137	0x3e3ee8e9	0.18643536
138	0x3d191eab	0.037382763
139	0x3d30879b	0.043098073
140	0x3c7d5670	0.015462503
141	0xbd7ad6e1	-0.06124008
142	0xbddddbe7	-0.10832959
143	0x3e518f14	0.20464736
144	0xbde378ad	-0.111070015
145	0xbd17d564	-0.03706874
146	0x3c84056c	0.016115867
147	0x3d67c0d7	0.05658039
148	0x3c81bf52	0.015838299
149	0x3d81be2e	0.06335102
150	0x3e1009e0	0.14066267
151	0x3e1f520d	0.15558644
152	0xbd9f3b1a	-0.077749446
153	0xbe4a6e40	-0.1976862
154	0xbdeb6ca9	-0.11495335
155	0x3d77bb55	0.060481388
156	0xbda2e66d	-0.079541065
157	0xbd811a89	-0.06303889
158	0xbdfcb6a8	-0.123395264
159	0xbde15598	-0.11002654
160	0x3e61ef1c	0.22063869
161	0x3d4bd1fc	0.049760804
162	0x3cbfaa93	0.023396766
163	0xbdb7e408	-0.089790404
164	0xbd4a649a	-0.049412347
165	0xbdeb6a59	-0.114948936
166	0xbd9f4d66	-0.077784345
167	0xbcf89971	-0.030346604
168	0x3d0d3a6c	0.034479544
169	0xbe187e3a	-0.14891902
170	0xbdb775bd	-0.08958004
171	0xbd411f82	-0.04714919
172	0xbc6ac772	-0.014329778
173	0xbcf71ab9	-0.03016411
174	0xbd1bf212	-0.038072653
175	0x3d1f1b5e	0.03884446
176	0x3da8e69a	0.08247109
177	0x3d822f20	0.06356645
178	0xbd402c8e	-0.04691749
179	0xbda3420e	-0.07971583
180	0xbc96a1e8	-0.01838775
181	0xbd802121	-0.06256319
182	0xbb476246	-0.0030423566
183	0xbc94b62f	-0.018153278
184	0xbea3c8d6	-0.31989163
185	0x3e41b9f6	0.18918595
186	0xbe4ccb29	-0.19999374
187	0xbdd4e2c6	-0.10394816
188	0xbd1210dc	-0.03566061
189	0x3ca9eb36	0.02074204
190	0xbdd797b2	-0.105269805
191	0xbc9c7e64	-0.019103236
192	0xbe031d8e	-0.12804243
193	0xbdcd3cb5	-0.100213446
194	0x3a19c5cb	0.000586596
195	0x3d950607	0.0727654
196	0x3d67d924	0.056603566
197	0x3de32541	0.1109109
198	0x3d6ff0ce	0.05857926
199	0x3e21de2d	0.1580741
200	0x3de762ff	0.11298179
201	0x3c2d20a8	0.010566868
202	0xbc2aaddb	-0.010417427
203	0xbd75a08b	-0.05996756
204	0xbd31528d	-0.043291617
205	0xbe1906fe	-0.14944074
206	0xbeb0d365	-0.3453628
207	0xbe3c8f5a	-0.1841406
208	0x3dc64ab7	0.096822195
209	0xbeb02549	-0.34403446
210	0xbcec6a7b	-0.028859368
211	0x3df40b57	0.119162254
212	0x3d831b74	0.06401721
213	0xbda81622	-0.082073465
214	0xbd7d1439	-0.061786864
215	0xbe2e48ae	-0.17019913
216	0x3e47bafe	0.19504926
217	0x3e4131d3	0.18866663
218	0x3d4c7006	0.04991152
219	0xbdc42375	-0.095770754
220	0x3e0e8417	0.13917576
221	0x3c9ac6b0	0.01889357
222	0xbd0fb241	-0.035082106
223	0xbd2ee9ed	-0.042703558
224	0xbe20d192	-0.15704945
225	0xbee4cb5c	-0.446864
226	0x3e183814	0.14865142
227	0x3e1a8584	0.15089995
228	0x3d981cd5	0.07427374
229	0xbceed61c	-0.02915483
230	0xbbaaa5a0	-0.0052077323
231	0x3d86846a	0.06568225
232	0xbe04601c	-0.12927288
233	0xbe922ea7	-0.28551218
234	0xbd0b66e6	-0.03403368
235	0xbd6e6df3	-0.058210324
236	0xbbfd9820	-0.007739082
237	0xbb32825a	-0.002723834
238	0x3c8f4c81	0.017492535
239	0x3da586c3	0.080823444
240	0x3bd5d0b6	0.0065251244
241	0xbde1dece	-0.11028825
242	0x3e0a55bd	0.13509269
243	0x3d26e68d	0.040747214
244	0xbd591a0e	-0.053003363
245	0xbd5146db	-0.051092964
246	0xbda9dd11	-0.08294118
247	0x3d22090f	0.03955942
248	0xbe3862d3	-0.18006448
249	0x3d1914f8	0.037373513
250	0xbd0dcc5a	-0.034618713
251	0x3ca726ac	0.020404182
252	0xbdcc2289	-0.099675246
253	0xbdf54d75	-0.119776644
254	0xbdbff483	-0.09372809
255	0xbd9b526f	-0.07584082

local_encoder_fc.bias f4 [64]
0	0x3de562a9	0.112004586
1	0xbd2e3fac	-0.04254119
2	0x3d893f0e	0.0670148
3	0x3e38161f	0.17977189
4	0xbd9b1dd4	-0.07574049
5	0xbdda418d	-0.10657034
6	0x3e83e573	0.25760993
7	0x3e821abc	0.25411022
8	0x3d3a6e8a	0.045515575
9	0xba24e0d2	-0.00062896044
10	0x3e5d3a0a	0.21604171
11	0xbe080bee	-0.13285801
12	0x3db2b400	0.087257385
13	0xbd2b29ae	-0.041787796
14	0x3d06cf86	0.032912754
15	0x3eb00ff0	0.3438716
16	0xbe33cd03	-0.17558675
17	0xbe404016	-0.18774447
18	0x3df2f726	0.11863546
19	0x3e2e34e5	0.17012365
20	0xbd802c64	-0.06258467
21	0x3d2d9aff	0.042384144
22	0xbe41b675	-0.18917258
23	0xbed83df8	-0.42234778
24	0x3ddb88cc	0.10719451
25	0xbcf2a1ab	-0.029618105
26	0x3ba4ba78	0.0050271116
27	0xbc277a3c	-0.010222014
28	0xbc24815d	-0.010040608
29	0xbd8c0d56	-0.06838481
30	0xbcf87fe4	-0.03033442
31	0xbe8a2eba	-0.26988775
32	0xbe46c4bd	-0.19410987
33	0xbe40d6ec	-0.18831986
34	0xbe3d6e50	-0.18499112
35	0x3dbf1827	0.093307786
36	0xbe8b6406	-0.2722475
37	0xbe8b0338	-0.27150893
38	0x3d076d84	0.033063427
39	0xbd9f962e	-0.077923164
40	0xbe7e7355	-0.24848683
41	0xbe902d19	-0.28159407
42	0xbe374ca2	-0.17900327
43	0xbe527086	-0.20550737
44	0x3c35788a	0.011076102
45	0xbddbe3e1	-0.10736824
46	0xbdfdd1ba	-0.12393518
47	0xbe0564e2	-0.13026765
48	0xbe1055f5	-0.1409529
49	0xbe33da4e	-0.17563745
50	0xbe66a33d	-0.22523208
51	0xbe4e4ba8	-0.20146048
52	0xbe39c3c9	-0.18141092
53	0xbe610e6d	-0.21978159
54	0xbe7ec66d	-0.24880381
55	0xbe813610	-0.2523656
56	0xbe3151e7	-0.173164
57	0xbdbb1d43	-0.091364406
58	0xbde4b341	-0.111670025
59	0xbe6545a6	-0.2238985
60	0xbe59993a	-0.21249858
61	0xbe58444e	-0.21119806
62	0xbe836a1e	-0.25666898
63	0xbd867e78	-0.06567091

encoder_vector_quantization.embedding.weight f4 [16, 4]
0	0x3f287881	0.65808874
1	0xbf6e8f1e	-0.9318713
2	0x3bb8acba	0.005635825
3	0xbf32745f	-0.6970882
4	0xbf0769bd	-0.5289572
5	0xbf677d70	-0.9042578
6	0xbf74be6f	-0.9560308
7	0xbef540d2	-0.47901016
8	0xbed1d77d	-0.40984717
9	0x3f2bb779	0.6707683
10	0xbf1fe225	-0.62454444
11	0xbfd5a08a	-1.6689618
12	0x3f8a690a	1.0813305
13	0x3f17d379	0.59307057
14	0x3ef0fd06	0.47068042
15	0xbff3ea62	-1.9055903
16	0xbfa079f6	-1.253722
17	0x3f0e4089	0.5556722
18	0xbf8a3573	-1.0797561
19	0xbfb21fb4	-1.3915925
20	0x3dff3264	0.12460783
21	0xbf11fc5c	-0.57025695
22	0xbef70129	-0.48243073
23	0xbf57d8a7	-0.8431496
24	0x3e78e71d	0.24306913
25	0xbfb15006	-1.3852546
26	0xbf0bca5e	-0.5460566
27	0xbd93442b	-0.071907364
28	0x3f17ca88	0.59293413
29	0xbe649e56	-0.22326025
30	0x3cf9d327	0.030496193
31	0xbfa589d1	-1.2932683
32	0xbf075593	-0.5286495
33	0xbdd107f3	-0.10206594
34	0xbf5d6d71	-0.8649512
35	0xbf8b0132	-1.085974
36	0xbf722155	-0.9458211
37	0x3fc34282	1.5254672
38	0xbf438b31	-0.76384264
39	0xc0050e1b	-2.078986
40	0x3e93252b	0.28739294
41	0x3f094218	0.53616476
42	0xbde24c44	-0.11049703
43	0xbfdc1caf	-1.7196254
44	0x3dffdae8	0.12492925
45	0x3fb4a525	1.4112898
46	0xbd917c92	-0.07103838
47	0xc00c96d2	-2.1967053
48	0x3fa960c1	1.3232652
49	0xbf174c54	-0.5910084
50	0x3f2cac7a	0.6745068
51	0xbf953a54	-1.1658425
52	0xbc2d5aeb	-0.010580759
53	0x3c0486ee	0.00808881
54	0xbedfe167	-0.43726656
55	0xbfae0038	-1.3593817
56	0x3f938fa8	1.1528215
57	0xbfcfe8ef	-1.6242961
58	0x3eb622cc	0.35573423
59	0xbde40d96	-0.11135404
60	0xbfaf3b9d	-1.3690068
61	0xbed24219	-0.41066054
62	0xbfa99273	-1.3247818
63	0xbf3b64f8	-0.7320094

local_decoder_fc.weight f4 [768, 64]
0	0xbd1a82a6	-0.037722252
1	0x3e3b3fcf	0.1828606
2	0xbeeb4478	-0.45950675
3	0x3e7a52f1	0.24445702
4	0xbeab8942	-0.33503157
5	0x3df9af06	0.12191586
6	0x3e7fb602	0.24971774
7	0x3e192a1a	0.14957467
8	0x3cb022d6	0.021500986
9	0x3e0daad1	0.13834693
10	0x3de4950e	0.111612424
11	0xbd95af6a	-0.07308848
12	0x3ea44fa7	0.3209202
13	0xbddf9c58	-0.10918492
14	0x3e0b8e91	0.13628604
15	0xbd9b2933	-0.075762175
16	0xbeef2968	-0.46711278
17	0xbdb23c6c	-0.08702931
18	0x3dd2c81e	0.102920756
19	0x3c9af562	0.018915836
20	0xbb807921	-0.0039206897
21	0x3e823285	0.25429168
22	0xbe87f27e	-0.26552194
23	0xbe7e13a6	-0.24812183
24	0x3e38a29c	0.1803078
25	0xbe58fff0	-0.21191382
26	0x3d6bf60e	0.057607703
27	0xbe4f70b7	-0.20257841
28	0x3e3eb785	0.18624695
29	0x3e043280	0.12909889
30	0x3dcc6b36	0.09981386
31	0xbef93d37	-0.48679516
32	0xbeb8f235	-0.3612229
33	0x3b946a17	0.0045292485
34	0xbe4abd07	-0.1979867
35	0xbb113ec0	-0.0022162646
36	0xbeec1b5b	-0.4611462
37	0xbd26beb6	-0.04070922
38	0x3d9d2a91	0.076741345
39	0xbdd4eff9	-0.10397334
40	0xbe319f37	-0.17345892
41	0xbea5ae89	-0.32359722
42	0xbdaac3c6	-0.08338122
43	0xbe2f84cf	-0.17140506
44	0xbe753886	-0.23947343
45	0xbe972ee2	-0.29527956
46	0xbdf751bd	-0.12076137
47	0xbeaaa4d6	-0.33328885
48	0xbdb28f7e	-0.08718775
49	0xbdf79110	-0.12088215
50	0xbd24873d	-0.040168036
51	0x3e022041	0.12707616
52	0xbe0dc071	-0.13842942
53	0xbd347f31	-0.04406661
54	0xbe061c0c	-0.13096637
55	0xbd86d0ea	-0.06582816
56	0x3e0c07e6	0.13674888
57	0xbde87335	-0.11350099
58	0x3e62d26d	0.22150584
59	0xbe30f41f	-0.17280625
60	0xbea0849f	-0.31351182
61	0xbbbe8291	-0.0058139046
62	0x3e3816fb	0.17977516
63	0xbeae50d4	-0.34046042
64	0xbd02a22c	-0.03189294
65	0xbda20cba	-0.07912584
66	0x3d3ee346	0.046603464
67	0x3d643ea0	0.055723786
68	0xbe8b53ad	-0.27212277
69	0xbe3615a7	-0.17781697
70	0x3d86331b	0.06552716
71	0x3e1da0de	0.15393397
72	0xbdcf8db5	-0.1013445
73	0xbdc0c272	-0.094120875
74	0xbd877bf1	-0.06615437
75	0x3dde1d8c	0.10845479
76	0xbc3ee719	-0.011651778
77	0x3d7b40aa	0.061340965
78	0xbe689705	-0.2271386
79	0x3deb96d6	0.11503379
80	0xbe01fd4b	-0.1269428
81	0x3df25034	0.11831704
82	0x3cf4360c	0.029810928
83	0x3e0d5d64	0.13805157
84	0xba816f19	-0.0009875029
85	0x3d86befb	0.065793954
86	0xbe95117f	-0.2911491
87	0xbe1d18bd	-0.15341468
88	0xbe0ee8af	-0.13955949
89	0xbd9eff21	-0.07763506
90	0x3dd523f6	0.1040725
91	0xbd407602	-0.04698754
92	0xbcc63d64	-0.024199195
93	0xbe1a5c36	-0.15074238
94	0xbd9ec348	-0.07752091
95	0xbd8ea825	-0.06965665
96	0xbe0d4c7f	-0.13798712
97	0xbe218649	-0.15773882
98	0xbcc2106f	-0.023689477
99	0xbe15b884	-0.14621168
100	0xbe266bb5	-0.16252024
101	0x3d82ff33	0.06396332
102	0x3d49a379	0.049228165
103	0xbdee9b7b	-0.11650749
104	0xbda5e08c	-0.080994695
105	0xbe0009e0	-0.12503767
106	0xbcef1573	-0.029185032
107	0x3d0fdd01	0.035122875
108	0xbe0133da	-0.12617436
109	0x3dd57bfc	0.10424039
110	0xbd05a66f	-0.032629427
111	0x3d43aef5	0.047774274
112	0xbcc39315	-0.023873845
113	0xbdf6ff85	-0.12060455
114	0xbe3237c0	-0.1740408
115	0xbde8b79f	-0.11363148
116	0xbdcd1673	-0.100140475
117	0x3d95b824	0.07310513
118	0x3db81eaa	0.08990224
119	0x3dd35461	0.103188284
120	0xbe39a26a	-0.18128362
121	0xbdb8f80f	-0.090316884
122	0x3d70f124	0.05882372
123	0x3d7f77ac	0.062369987
124	0xbdb2e375	-0.0873479
125	0xbe210be5	-0.15727194
126	0xbe835c4c	-0.25656354
127	0x3da0930b	0.07840546
128	0x3e27c478	0.1638354
129	0x3e1c71a3	0.15277724
130	0xbc2ffa12	-0.010740774
131	0xbcd14eca	-0.025550265
132	0xbc7aafd6	-0.015300712
133	0x3d131c7a	0.03591583
134	0x3cf0e3eb	0.029405555
135	0x3e32af8d	0.1744978
136	0x3dca67fa	0.09883113
137	0x3e5b93fc	0.2144317
138	0xbd0c4f87	-0.03425553
139	0x3d385948	0.04500702
140	0x3d9b9b5c	0.07597992
141	0x3d80e099	0.062928386
142	0x3db3864c	0.087658495
143	0xbe44d90b	-0.1922342
144	0xbe608a4c	-0.21927756
145	0x3e82fa6a	0.25581676
146	0x3d803abb	0.06261202
147	0xbe547c6b	-0.20750587
148	0xbe05dec8	-0.13073266
149	0x3e413f2f	0.18871759
150	0x3e2b03c2	0.16700652
151	0xbe1df547	-0.15425597
152	0x3e0631a5	0.13104875
153	0xbe3deadf	-0.18546627
154	0x3d187e49	0.03722981
155	0x3d454460	0.04816091
156	0xbda13dc8	-0.07873112
157	0xbe23cab8	-0.159953
158	0xbd584037	-0.052795615
159	0xbc536832	-0.01290326
160	0xbda867bc	-0.08222911
161	0xbe975143	-0.29554185
162	0xbdfb533a	-0.122717336
163	0xbcae910d	-0.0213094
164	0xbed19b9a	-0.40939027
165	0xbe25c6d7	-0.16189133
166	0xbe846552	-0.2585855
167	0xbc4a3cb1	-0.0123435715
168	0xbdfc359f	-0.12314915
169	0xbc8f028e	-0.017457273
170	0x3e357fe8	0.17724574
171	0xbe75686d	-0.23965617
172	0x3b8a3f5b	0.0042189783
173	0xbdb5c30c	-0.08875093
174	0xbca31634	-0.019908048
175	0x3e1224af	0.14271806
176	0xbc9bd589	-0.01902272
177	0xbe066e67	-0.13128053
178	0x3bb58e5a	0.0055406513
179	0xbe72bfdb	-0.23706
180	0xbe12edb1	-0.14348485
181	0xbdd3c1d4	-0.10339704
182	0xbcd611b2	-0.026131485
183	0xbdd6e890	-0.104935765
184	0xbd9ba0c0	-0.0759902
185	0xbe1173dd	-0.14204355
186	0xbe958ad0	-0.29207468
187	0xbdab28d2	-0.08357395
188	0xbdfe3372	-0.12412156
189	0xbe288ef3	-0.16460781
190	0x3e1b43ef	0.15162633
191	0xbdbe9e41	-0.09307528
192	0x3dbc935d	0.09207795
193	0x3e099deb	0.13439147
194	0x3c478f1a	0.012180114
195	0x3dbb3b28	0.091421425
196	0x3e1ec862	0.15506127
197	0x3ce508b7	0.027958257
198	0x3e1c4512	0.15260723
199	0x3df1cdcc	0.11806831
200	0x3cbac9c5	0.02280129
201	0x3e42c111	0.19018961
202	0x3e96e500	0.29471588
203	0x3d8eca00	0.06972122
204	0x3b1f2478	0.0024283212
205	0xbbfe749c	-0.0077653658
206	0xbdfaf6e1	-0.1225412
207	0xbd86881f	-0.06568932
208	0xbd38776b	-0.04503576
209	0x3db2ab38	0.08724064
210	0xbe89db40	-0.26925087
211	0xbec3e2c8	-0.38258958
212	0xbd2fe6d7	-0.042944755
213	0xbe4a6527	-0.19765149
214	0xbeaae231	-0.33375695
215	0x3b4be7b4	0.0031113448
216	0xbe1505a8	-0.14552939
217	0xbc9e379c	-0.019313626
218	0xbf023b64	-0.5087187
219	0xbe33ec50	-0.17570615
220	0xbd94e126	-0.07269506
221	0x3d814146	0.06311278
222	0x3cfcdbd4	0.030866541
223	0xbe450d84	-0.19243437
224	0x3d28c217	0.041200723
225	0x3c516482	0.012780311
226	0xbe1be882	-0.15225413
227	0xbe605861	-0.21908714
228	0x3e68ed96	0.22746882
229	0xbd9cb00c	-0.07650766
230	0xbe2116ca	-0.1573135
231	0x3ceefa41	0.029172065
232	0x3dda426e	0.10657202
233	0xbe893645	-0.26799217
234	0xbe3cc76e	-0.18435451
235	0x3e3f9acb	0.18711393
236	0xbebfc780	-0.37456894
237	0xbdc916ca	-0.098188
238	0x3ccfebb4	0.025380947
239	0xbd5fecb4	-0.054669097
240	0xbe9359d1	-0.28779462
241	0xbdeb72da	-0.114965156
242	0xbe9e51aa	-0.3092168
243	0xbe19f4bd	-0.15034766
244	0xbd5fd34e	-0.054644875
245	0xbe62e7b4	-0.221587
246	0xbe17b343	-0.14814477
247	0xbe7f6d77	-0.24944101
248	0xbd985396	-0.07437818
249	0xbdae3a77	-0.08507245
250	0xbf118539	-0.56843907
251	0xbe40f99e	-0.18845221
252	0x3c3e1084	0.011600617
253	0xbe4cd3d1	-0.20002677
254	0xbb8736b1	-0.004126393
255	0x3dee97b8	0.11650032

local_decoder_fc.bias f4 [768]
0	0xbdd8779f	-0.10569691
1	0x3e45842b	0.192887
2	0xbc966a2b	-0.018361172
3	0x3ea35e37	0.31907818
4	0x3e14f08c	0.14544886
5	0x3eb28973	0.3487049
6	0x3e998bed	0.29989567
7	0x3e439d35	0.19102938
8	0x3e435188	0.1907407
9	0x3d851e74	0.06499949
10	0x3e8164f0	0.25272322
11	0x3e9de8c8	0.3084166
12	0x3e8343ab	0.25637564
13	0x3d815765	0.06315497
14	0x3e67607d	0.22595401
15	0x3d9720ca	0.07379301
16	0xbd3cb15a	-0.046067573
17	0x3dc1949e	0.094521746
18	0x3e97e732	0.29668576
19	0x3e45916b	0.19293754
20	0xbcd4b673	-0.025965905
21	0x3e7abf2d	0.2448699
22	0x3e39d342	0.18146995
23	0x3e82a1f0	0.25514174
24	0x3ec7015d	0.38868228
25	0x3edce904	0.43146527
26	0x3ed5f0cc	0.41785276
27	0x3e4b5b80	0.19859123
28	0x3e4a19e5	0.1973644
29	0x3e9082d6	0.2822482
30	0x3e621222	0.2207723
31	0x3e5112dd	0.20417352
32	0x3ecbbd92	0.39793068
33	0x3eca3879	0.3949621
34	0x3ebe730b	0.37197146
35	0x3ea3a020	0.31958103
36	0x3e791dc7	0.24327765
37	0x3e82ab81	0.25521472
38	0x3ea7724f	0.32704398
39	0x3e817be5	0.25289837
40	0x3e72005b	0.23632948
41	0x3e23310f	0.15936683
42	0x3ef41723	0.47673902
43	0x3ec72759	0.38897207
44	0x3e64a8ea	0.2233006
45	0x3e2937d7	0.16525207
46	0x3e88297a	0.26594144
47	0x3e876bae	0.2644934
48	0x3e0fa788	0.14028752
49	0x3ec3cbfb	0.38241562
50	0x3e42ac92	0.19011143
51	0x3e864b8b	0.2622951
52	0x3e04cb23	0.12968116
53	0x3e3bd220	0.18341875
54	0x3eaaf3aa	0.33389026
55	0x3dda01ac	0.1064485
56	0x3e51a5a0	0.20473337
57	0x3e649616	0.22322878
58	0x3df46f0a	0.119352415
59	0x3e173875	0.1476763
60	0x3e2e875d	0.17043824
61	0x3e7d1921	0.24716617
62	0x3e845f1c	0.25853813
63	0x3e5785eb	0.2104718
64	0x3e4eac50	0.2018292
65	0xbeadb44f	-0.33926627
66	0xbd108d56	-0.03529104
67	0xbec1f838	-0.37884688
68	0xbe1e2d8a	-0.1544706
69	0xbe69fd6b	-0.22850578
70	0xbe5a9d41	-0.2134905
71	0xbe993ac4	-0.29927647
72	0xbe204bb0	-0.15653872
73	0xbea4ab23	-0.32161817
74	0xbe2e1b0d	-0.17002507
75	0xbec368c4	-0.38165867
76	0xbe6dbc0a	-0.23216262
77	0xbe3b0c9e	-0.18266532
78	0xbe869c56	-0.2629115
79	0xbdfc4b84	-0.12319091
80	0xbd552968	-0.05204144
81	0xbeaca0dc	-0.33716476
82	0xbdd6148b	-0.10453137
83	0xbe2bed74	-0.167898
84	0xbec11d91	-0.3771787
85	0xbeb3a0ed	-0.35083714
86	0xbe959b72	-0.29220158
87	0xbe36b3b7	-0.17841993
88	0xbe80c688	-0.25151467
89	0xbe933ffd	-0.28759757
90	0xbe23367e	-0.15938756
91	0xbe903934	-0.28168643
92	0xbe3be0aa	-0.18347421
93	0xbe55d739	-0.20882882
94	0xbea5663e	-0.32304567
95	0xbe2fe937	-0.17178808
96	0xbe6c7b0e	-0.23093817
97	0xbe9affd8	-0.30273318
98	0xbdaf664c	-0.085644335
99	0xbe03d79e	-0.1287522
100	0xbe1268b4	-0.14297754
101	0xbe28b0da	-0.16473714
102	0xbecf67aa	-0.40508777
103	0xbe5fcd69	-0.21855702
104	0xbe1a1aea	-0.1504933
105	0xbe92b8ac	-0.28656518
106	0xbe943e41	-0.28953746
107	0xbe6b2b60	-0.22965765
108	0xbecccf65	-0.4000198
109	0xbe85bdc9	-0.26121357
110	0xbeb5650c	-0.35428655
111	0xbe6f531b	-0.23371546
112	0xbe4696bb	-0.19393437
113	0xbe8e6ef7	-0.27819034
114	0xbe8b626d	-0.2722353
115	0xbe856318	-0.26052165
116	0xbe82e5f5	-0.25566068
117	0xbea53e12	-0.32273918
118	0xbeb79ece	-0.35863346
119	0xbe543d77	-0.20726572
120	0xbe446824	-0.19180351
121	0xbe7d5e78	-0.24743068
122	0xbe421a6f	-0.18955396
123	0xbe6bc93a	-0.2302598
124	0xbea7fd11	-0.32810262
125	0xbe8d65c1	-0.27616695
126	0xbed32418	-0.41238475
127	0xbe432df7	-0.19060503
128	0x3e2473ae	0.16059753
129	0xbe769f78	-0.2408427
130	0xbe7f885f	-0.24954365
131	0xbdc81973	-0.09770479
132	0xbe2bf8b8	-0.16794097
133	0xbe92c6d4	-0.2866732
134	0xbe427ea0	-0.18993616
135	0xbe466112	-0.19372967
136	0xbe541534	-0.20711213
137	0xbec4c320	-0.3843012
138	0xbde059a7	-0.109546
139	0xbe8fa727	-0.28057215
140	0xbeb7eda0	-0.3592348
141	0xbe8a6561	-0.2703047
142	0xbe90e0ab	-0.28296408
143	0xbe6ae42a	-0.229386
144	0x3df58148	0.11987549
145	0xbeb7753c	-0.3583163
146	0xbe81a53c	-0.25321376
147	0xbeb3d746	-0.35125178
148	0xbe9924a2	-0.2991076
149	0xbea9c014	-0.33154356
150	0xbe947dc0	-0.2900219
151	0xbead307d	-0.33826056
152	0x3cf54456	0.029939812
153	0xbe7c6faa	-0.24651971
154	0xbe38b2f3	-0.18037014
155	0xbe7f5fdc	-0.24938911
156	0xbeb2a5c3	-0.3489209
157	0xbe98c7bf	-0.29839894
158	0xbe40d98e	-0.1883299
159	0xbea054e7	-0.31314775
160	0xbe65c867	-0.22439729
161	0xbe6ff45e	-0.23433062
162	0xbece4f9e	-0.40295118
163	0xbe77c1d6	-0.24195036
164	0xbeb05670	-0.34440947
165	0xbe80f1ba	-0.25184423
166	0xbe76aab3	-0.24088554
167	0xbe8f59d1	-0.27998212
168	0xbec1e776	-0.37871903
169	0xbef90313	-0.48635158
170	0xbec51af2	-0.3849712
171	0xbeb971ab	-0.36219534
172	0xbe8abcce	-0.27097172
173	0xbe8a01d5	-0.26954523
174	0xbe8aefde	-0.2713613
175	0xbe4b9a8a	-0.1988317
176	0xbe9122ad	-0.28346768
177	0xbeaa4d79	-0.33262232
178	0xbe87f310	-0.2655263
179	0xbeceb550	-0.40372705
180	0xbea1abc3	-0.31576356
181	0xbe776615	-0.24160035
182	0xbe9d5a6e	-0.30733055
183	0xbe2734a2	-0.16328672
184	0xbd1b85f3	-0.03796954
185	0xbef7e5bf	-0.4841747
186	0xbef2d650	-0.47429132
187	0xbec0e6dc	-0.37676132
188	0xbe9f7150	-0.31141138
189	0xbe4a4b69	-0.19755329
190	0xbe85d71a	-0.26140672
191	0xbea66644	-0.32499897
192	0x3b561990	0.0032669045
193	0xbdc6e6f0	-0.097120166
194	0x3d87e3e5	0.06635264
195	0x3e0a5250	0.13507962
196	0x3e0bcbfb	0.13652031
197	0x3e74aa8a	0.2389318
198	0x3ea3c9ba	0.31989843
199	0x3e18990e	0.14902136
200	0xbdaede57	-0.08538502
201	0x3ea4b704	0.3217088
202	0x3e3d4bcf	0.1848595
203	0x3eb7fdf3	0.35935935
204	0x3e4d9976	0.20078072
205	0x3ebd86f0	0.37017012
206	0x3e5ec404	0.21754462
207	0x3d9e2605	0.077220954
208	0xbe14116a	-0.14459768
209	0x3f0c296e	0.54750717
210	0xbd78130e	-0.060565047
211	0x3eada83c	0.33917415
212	0x3e9055ec	0.28190553
213	0x3e77ee35	0.24211963
214	0x3e8ccb2b	0.27498755
215	0x3d74a6ac	0.059729263
216	0x3e83f8db	0.257758
217	0x3e83b9cc	0.2572769
218	0x3ed6bbfd	0.419403
219	0x3e80973b	0.2511538
220	0x3e1d1260	0.15339041
221	0x3e01bb2f	0.12669061
222	0x3e9473c8	0.28994584
223	0x3d62c3c4	0.055362478
224	0x3e9f89a2	0.31159693
225	0x3dc323e4	0.0952833
226	0x3e898198	0.26856685
227	0x3e6b5b11	0.22983958
228	0x3e102918	0.14078176
229	0x3e64a299	0.22327651
230	0x3e938cec	0.28818452
231	0x3e944e9d	0.28966227
232	0x3e6378b8	0.2221402
233	0x3eb583c1	0.35452083
234	0x3e1a3eff	0.15063094
235	0x3e9479ad	0.2899908
236	0x3eb33592	0.35001808
237	0x3e53b52a	0.20674577
238	0x3ebda93c	0.37043178
239	0x3e905db9	0.28196505
240	0x3e2cc912	0.16873577
241	0x3ea1fa8e	0.3163647
242	0x3e976cce	0.295752
243	0x3e757fe9	0.23974575
244	0x3e58c43b	0.21168606
245	0x3e5731a0	0.21015024
246	0x3e9a9a9b	0.3019608
247	0x3e6438d8	0.22287309
248	0xbdd1d0f2	-0.10244931
249	0x3e484087	0.19555865
250	0x3e1f92de	0.15583369
251	0x3e19ff19	0.15038718
252	0x3e416c0e	0.18888876
253	0x3e7c44a5	0.24635561
254	0x3e69722c	0.2279746
255	0x3e735433	0.23762588
